model.pth (torch, 378536 bytes, 8 tensors)

conv1.weight f4 [32, 1, 3, 3]
0	0x3e0b66f3	0.13613491
1	0x3ed973de	0.42471212
2	0x3d93505f	0.07193064
3	0xbe028d1e	-0.12749144
4	0xbb76cdd8	-0.0037659314
5	0x3eeb6bd9	0.4598072
6	0xbeb3cc6e	-0.35116905
7	0xbe8e59f2	-0.27802998
8	0x3d367b42	0.04455114
9	0xbe74742b	-0.2387244
10	0x3dd68d3b	0.10476156
11	0xb8421762	-4.627498e-05
12	0xbeccb169	-0.39979103
13	0x3e1fd3b5	0.15608104
14	0xbe3a0e76	-0.18169579
15	0xbdf6c016	-0.12048356
16	0xbeecf14b	-0.46277842
17	0xbe85a381	-0.26101306
18	0xbea6556c	-0.32487047
19	0xbe7edb8a	-0.24888435
20	0xbe83e02e	-0.25756973
21	0xbe50e69d	-0.20400472
22	0xbeb00a25	-0.3438274
23	0xbe4af3f9	-0.1981963
24	0x3ec32370	0.38112974
25	0x3f0fe5c6	0.5620998
26	0x3ef462a0	0.47731495
27	0x3da086b7	0.07838195
28	0x3dd1227e	0.10211657
29	0x3e9e18e6	0.3087837
30	0x3e97d3d2	0.29653794
31	0x3e117a9b	0.14206927
32	0x3dc0d118	0.094148815
33	0x3eb2c66a	0.34917003
34	0x3d16f48e	0.03685432
35	0x3e4475e8	0.19185603
36	0x3d9044af	0.0704435
37	0xbe191ab3	-0.14951591
38	0xbe1822cc	-0.14857024
39	0x3e8ae84f	0.27130362
40	0x3cb971f4	0.022637345
41	0xbe3166a3	-0.17324309
42	0x3e70beaf	0.2351024
43	0x3e81c99f	0.25349137
44	0x3ef7e0e6	0.4841377
45	0x3c6cded1	0.01445742
46	0xbe297677	-0.16549097
47	0xbe75659e	-0.23964545
48	0xbd2579fd	-0.04039954
49	0x3eb5209d	0.35376444
50	0xbe893d05	-0.26804367
51	0x3eb8d4d5	0.36099878
52	0x3edfc749	0.4370673
53	0x3e882691	0.26591924
54	0x3d0c98e1	0.034325484
55	0x3ee0fce1	0.4394293
56	0x3e9c3510	0.30509233
57	0xbdaaa72c	-0.08332667
58	0x3eae25e0	0.3401327
59	0x3e91db2f	0.28487536
60	0x3eb07a0b	0.3446811
61	0x3dd7afcd	0.10531578
62	0x3e9db7ab	0.3080419
63	0x3e993925	0.2992641
64	0xbe9e2709	-0.30889156
65	0xbdf10e90	-0.11770356
66	0xbd8585f8	-0.06519693
67	0xbebcf093	-0.36902294
68	0x3ef3b075	0.47595564
69	0xbdccc683	-0.099988006
70	0x3e1e25fd	0.15444179
71	0x3e176be2	0.14787248
72	0xbcf15fa0	-0.029464543
73	0x3d0dcfff	0.03462219
74	0xbe7441c6	-0.23853216
75	0x3e7968c0	0.24356365
76	0xbc96a4ad	-0.01838907
77	0x3ee66038	0.44995284
78	0xbd8d6d4b	-0.069056116
79	0x3f0ba564	0.5454924
80	0x3d545d2e	0.051846676
81	0x3eab0989	0.33405712
82	0x3eca15b6	0.3946969
83	0x3ec52b7d	0.3850974
84	0x3eb36ef7	0.35045597
85	0x3e8a3356	0.2699229
86	0x3ddf3fec	0.10900864
87	0xbdfb6ff7	-0.12277215
88	0x3f047e0f	0.5175485
89	0x3e5a514e	0.21320078
90	0x3e257c47	0.1616069
91	0x3d921307	0.071325354
92	0x3ea4f55a	0.32218438
93	0xbe8a9baa	-0.27071887
94	0x3d07bc46	0.033138536
95	0x3e2e2282	0.17005351
96	0xbd77c401	-0.06048966
97	0x3ea3b1a4	0.31971467
98	0x3f08e107	0.53468364
99	0x3f036840	0.5133095
100	0xbe02b63c	-0.1276483
101	0xbd763ae5	-0.06011476
102	0xbd8e237b	-0.06940361
103	0xbee48ed4	-0.4464022
104	0xbe247a35	-0.16062243
105	0xbd7b4115	-0.061341364
106	0xbc71d13d	-0.014759359
107	0x3ec58902	0.3858109
108	0x3e9a1ef0	0.30101728
109	0xbe050dbb	-0.12993519
110	0xbe7db4a2	-0.24775937
111	0x3e7dadb8	0.247733
112	0x3d30d9e5	0.04317655
113	0x3ec8a796	0.39190358
114	0x3eede3e5	0.46462932
115	0x3db7138a	0.08939274
116	0xbe6ebf95	-0.2331527
117	0x3db56cda	0.088586524
118	0x3e6d6b15	0.2318538
119	0xbe8d31e1	-0.27577117
120	0x3d8e32d1	0.06943286
121	0x3df99a18	0.12187594
122	0xbe7dd01d	-0.2478642
123	0x3ef7856c	0.4834398
124	0x3eb595f0	0.35465956
125	0xbe8c6deb	-0.2742761
126	0x3ecc6612	0.39921623
127	0x3e9c1706	0.30486315
128	0xbe402a7b	-0.18766205
129	0x3ee96300	0.45583344
130	0x3e5f8713	0.2182887
131	0x3e9613b0	0.29311895
132	0x3df93cb4	0.12169781
133	0x3eb417a1	0.35174277
134	0x3dcac6a1	0.09901167
135	0x3ec6fa19	0.38862684
136	0xbe8b7e0e	-0.2724461
137	0xbe5582a2	-0.20850614
138	0x3e16ca9d	0.14725728
139	0x3e79b616	0.24385867
140	0x3e602fcf	0.21893238
141	0xbcdc0251	-0.026856573
142	0x3f084e44	0.53244424
143	0x3eda0b20	0.42586613
144	0x3e8ac46d	0.27102986
145	0x3eb75e4c	0.3581413
146	0x3ed07469	0.40713814
147	0x3ead6ec6	0.33873576
148	0x3f078309	0.5293432
149	0x3ebc550a	0.3678363
150	0xbde39afd	-0.11113546
151	0x3efd0110	0.49414873
152	0x3ea0e28b	0.3142284
153	0xbd9e051e	-0.0771582
154	0x3d9327b4	0.07185307
155	0x3ecca644	0.399706
156	0x3e969759	0.29412344
157	0x3e6b71d1	0.22992636
158	0x3e9ebf16	0.31005162
159	0x3f0584e3	0.52155894
160	0x3e6ca994	0.23111564
161	0x3e58a407	0.21156321
162	0x3ecb48d9	0.39704016
163	0xbe50ff93	-0.20409994
164	0xbcfe8258	-0.031068012
165	0x3f031771	0.51207644
166	0x3e4c5006	0.19952402
167	0x3ea6e5f1	0.32597306
168	0x3ec14df1	0.37754777
169	0x3eb5b86a	0.3549226
170	0x3e26a48c	0.16273707
171	0x3e91b7a0	0.28460407
172	0x3ec27427	0.37979242
173	0x3ef73e57	0.4828975
174	0x3cf28953	0.029606497
175	0x3f06c054	0.5263722
176	0x3ec3c13e	0.3823337
177	0x3ead805a	0.33886987
178	0x3efb1d4a	0.49045783
179	0x3e31c792	0.17361286
180	0xbe01dd76	-0.12682137
181	0xbe0763b3	-0.13221626
182	0xbe301bab	-0.17198054
183	0xbe33820e	-0.1753008
184	0xbea502ef	-0.322288
185	0xbe305a13	-0.1722186
186	0x3e757eaa	0.239741
187	0xbe160fa3	-0.14654402
188	0xbe0d8e5b	-0.13823836
189	0x3e23e36b	0.16004722
190	0x3ec46108	0.3835528
191	0x3c51f2ab	0.012814204
192	0x3dd4120e	0.10355006
193	0xbdfe799b	-0.12425538
194	0xbe248ea9	-0.16070046
195	0x3e35ba09	0.17746748
196	0x3eb39b8e	0.35079616
197	0xbe89370b	-0.26799807
198	0x3ef8374f	0.48479697
199	0x3d8ec875	0.06971828
200	0x3eeee236	0.4665696
201	0x3e1ff309	0.15620054
202	0x3dd2628f	0.10272705
203	0x3e824d6e	0.254497
204	0xbe424c94	-0.18974525
205	0x3e6795ef	0.22615789
206	0x3eb36b8c	0.3504299
207	0xbecdf87e	-0.40228647
208	0x3d34c85e	0.044136398
209	0xbe5fb6a6	-0.21847019
210	0xbd3c89c3	-0.046029817
211	0xbed5e35d	-0.41775027
212	0x3d9be580	0.07612133
213	0xbe1fa962	-0.15591958
214	0x3e02068f	0.12697814
215	0xbeacfb3c	-0.33785427
216	0x3e4a44d6	0.19752821
217	0x3eddf90f	0.4335408
218	0x3e98ed13	0.29868373
219	0xbe455416	-0.19270357
220	0x3e066afe	0.13126752
221	0x3daf2569	0.08552057
222	0xbdb3e5c4	-0.08784059
223	0x3efbb053	0.49157962
224	0x3ebe426d	0.37160054
225	0xbe005a52	-0.12534454
226	0xbeeea0bf	-0.46607015
227	0xbe7072ea	-0.23481336
228	0xbea09701	-0.31365207
229	0xbe1cd6b4	-0.15316278
230	0xbe23308f	-0.15936492
231	0xbcbef199	-0.023308562
232	0x3ebfdd76	0.3747365
233	0x3eaea348	0.3410895
234	0x3e0d9a21	0.13828327
235	0x3e7e157f	0.24812888
236	0xbd1471b8	-0.036241263
237	0x3e10d91a	0.14145318
238	0x3e7b7164	0.24554974
239	0xbd17141d	-0.036884416
240	0x3cd64d57	0.026159925
241	0x3f02c575	0.51082546
242	0x3ee903cd	0.45510712
243	0xbed3ea16	-0.4138953
244	0xbc479a74	-0.012182821
245	0xbe0ab6df	-0.13546322
246	0xbeca3fef	-0.39501902
247	0xbe829d9c	-0.2551087
248	0x3e364d8b	0.17803018
249	0x3d1aabc0	0.03776145
250	0x3e30514f	0.17218517
251	0xbd0cc0b2	-0.034363456
252	0xbebb59af	-0.3659186
253	0xbea6889e	-0.32526106
254	0xbe225f32	-0.15856627
255	0xbec1286f	-0.3772616

conv1.bias f4 [32]
0	0xbce60be3	-0.02808184
1	0x3ea28013	0.31738338
2	0x3e1da9a3	0.15396743
3	0x3d6f196e	0.05837386
4	0xbd2caf9f	-0.042159673
5	0x3a8be45b	0.0010672914
6	0x38fca996	0.00012047884
7	0xbdc045d3	-0.09388318
8	0xb88a7755	-6.60258e-05
9	0xbdd6e787	-0.10493379
10	0xbe376eca	-0.17913356
11	0x3d152a60	0.036417365
12	0xb9ed380d	-0.00045245924
13	0x3e4638ec	0.19357651
14	0x3757e654	1.2868626e-05
15	0x38281b64	4.007983e-05
16	0x38110bf8	3.458184e-05
17	0x3da86b4a	0.08223589
18	0x37ce8b66	2.4622026e-05
19	0x3e55c495	0.20875771
20	0xbe9117d0	-0.2833848
21	0x3e7bc6de	0.2458758
22	0xbe320dfb	-0.17388146
23	0x3ea3ef8f	0.32018706
24	0x3e4d464f	0.20046352
25	0x3e36229e	0.17786643
26	0x3cb79bc8	0.02241315
27	0x3e721fce	0.23644945
28	0x3d804923	0.0626395
29	0x3eaecabc	0.3413905
30	0x3e1dfaec	0.1542775
31	0xbd2521cf	-0.040315446

conv2.weight f4 [64, 32, 3, 3]
0	0x3e19e9e4	0.15030628
1	0x3dc64624	0.09681347
2	0x3e11fba9	0.14256157
3	0xbd69db6b	-0.05709402
4	0xbbca8b72	-0.006181174
5	0x3e3f2ab9	0.18668641
6	0xbd119ab0	-0.035547912
7	0xbd8074ad	-0.06272254
8	0xbc7b151f	-0.01532486
9	0x3b044543	0.0020182885
10	0x3d9f8778	0.077895105
11	0x3cb33ad0	0.02187863
12	0x3dd68174	0.1047391
13	0x3e094259	0.13404216
14	0x3d034fe8	0.032058626
15	0x3d7287b6	0.059211455
16	0x3d79e265	0.061006922
17	0x3d676311	0.05649096
18	0xbd3a8941	-0.04554105
19	0xbd877bed	-0.06615434
20	0xbc59365d	-0.01325759
21	0x3bd4bcdc	0.0064922404
22	0xbdb6a194	-0.08917537
23	0x38f39f77	0.000116168456
24	0x3d4b917b	0.049699288
25	0x3de44ff2	0.11148061
26	0x3db2ce0f	0.08730709
27	0x3be0787a	0.0068502994
28	0x3b00e6bd	0.001966878
29	0x3d8a865d	0.06763909
30	0xbd0e0665	-0.034674067
31	0xbd1cf732	-0.03832168
32	0x3d43aeff	0.04777431
33	0xbcd57d9c	-0.026060872
34	0xbd412a90	-0.04715973
35	0xbc1be6b5	-0.009515454
36	0xbd85e9b3	-0.06538715
37	0xbd413a21	-0.047174577
38	0x3dbccfcf	0.09219324
39	0xbd46790f	-0.048455294
40	0xbdf941f6	-0.12170784
41	0x3cbd8f66	0.023139667
42	0x3bf4d56f	0.0074717323
43	0x3d18492c	0.037179157
44	0xbca440ee	-0.020050492
45	0xbdc9afe2	-0.09848
46	0xbc9fed1e	-0.019522246
47	0x3d8f9e17	0.07012575
48	0xbd54c9dc	-0.05195032
49	0xbe0e90a7	-0.13922368
50	0xbd0f1eed	-0.034941602
51	0x3d419c57	0.047268238
52	0x3d13eeb8	0.03611633
53	0xbdc59d34	-0.09649125
54	0xbca75b6d	-0.020429337
55	0x3ddd8167	0.10815697
56	0x3d9a671b	0.07539197
57	0x3b52f179	0.0032187386
58	0xbc81da9d	-0.015851313
59	0x3d74458e	0.059636645
60	0x3cc481a9	0.023987608
61	0xbd817976	-0.06321995
62	0x3d591be5	0.053005118
63	0xbdbce349	-0.09223039
64	0xbd8198c7	-0.06327968
65	0xbdb86653	-0.09003892
66	0xbd7e3625	-0.062063355
67	0xbd9c2fe8	-0.07626325
68	0xbcd3bd03	-0.025846964
69	0xbd522f25	-0.05131449
70	0xbcd354e9	-0.025797324
71	0xbcfc8487	-0.030824913
72	0xbd9a4bf2	-0.07534017
73	0x3cbb67e0	0.02287668
74	0x3d9878eb	0.07444938
75	0xbddef8d9	-0.10887308
76	0xbca93bff	-0.020658491
77	0x3d8fa297	0.070134334
78	0xbbd305ff	-0.006439924
79	0xbd8d83ce	-0.069099054
80	0x3d351d97	0.044217672
81	0xbcb675d2	-0.022272978
82	0x3c71f2a0	0.014767319
83	0x3dfb8c51	0.122826226
84	0xbdbb716b	-0.09152492
85	0xbdb56683	-0.08857443
86	0x3d709526	0.05873599
87	0xbdbbaed8	-0.09164208
88	0xbd95dfd7	-0.07318085
89	0xbb8def91	-0.004331537
90	0xbd58dc32	-0.05294437
91	0x3d89d38f	0.06729805
92	0x3daf8a9a	0.08571358
93	0xbd429660	-0.04750669
94	0x3c6ddd23	0.014518055
95	0x3e01c289	0.12671866
96	0xbd40f559	-0.04710898
97	0xbdc77ac2	-0.09740211
98	0x3c1036c2	0.008802118
99	0xbdc73330	-0.0972656
100	0xbdd8cd0a	-0.10585983
101	0xbe08e5cd	-0.13368912
102	0xbdbad6e7	-0.091230206
103	0xbd754a5d	-0.05988537
104	0xbcbab53c	-0.022791497
105	0xbc8b58b4	-0.01701007
106	0x3d4d4105	0.050110836
107	0xbd32c0ec	-0.043641016
108	0xbd47aa2e	-0.04874628
109	0xbd1cb356	-0.038256966
110	0x3dbbbf7f	0.09167384
111	0xbe109c18	-0.14122045
112	0xbdb5c6e2	-0.088758245
113	0xbc38671e	-0.011255054
114	0xbc29e0d5	-0.010368546
115	0xbdae5894	-0.08512989
116	0xbdcc12df	-0.09964537
117	0xbd2ac887	-0.041695144
118	0xbd7bd718	-0.061484426
119	0xbd2fcc9c	-0.04291974
120	0xbcaa229f	-0.020768462
121	0xbd87e8b6	-0.06636183
122	0xbba42367	-0.005009103
123	0x3cba3884	0.022732027
124	0xbd806bbc	-0.06270549
125	0xbd8d0d82	-0.06887342
126	0xbc0cabe4	-0.008585904
127	0x3ce94323	0.028474396
128	0x3e01aa82	0.126627
129	0xbcf9e17e	-0.03050303
130	0xbd96e82c	-0.07368502
131	0xbc91a169	-0.017777162
132	0xbc233e05	-0.009963517
133	0xbddceae1	-0.10786987
134	0xbd2439a0	-0.040094018
135	0xbd98706d	-0.074433185
136	0x3c0a18c3	0.008428755
137	0x3d8b5c34	0.06804696
138	0xbd24f382	-0.04027129
139	0xbd2592cc	-0.0404232
140	0x3ca65518	0.020304248
141	0x3d2adf62	0.04171694
142	0x3bb270b9	0.0054455665
143	0x3c0ffd73	0.008788454
144	0xba70faaf	-0.0009192628
145	0x3dc5fb4a	0.0966707
146	0x3d486f65	0.04893436
147	0xbcefef58	-0.029288933
148	0xbcb73c3e	-0.022367593
149	0x3b07503f	0.0020647196
150	0xbd7e288e	-0.062050395
151	0xbc8e0fbc	-0.017341487
152	0x3d2e2cfe	0.042523377
153	0xbb497db3	-0.0030745089
154	0x3d876026	0.06610136
155	0xbcb46053	-0.022018587
156	0xbda9cd22	-0.08291079
157	0xbce5bfb6	-0.028045516
158	0x3d8882e3	0.0666559
159	0x3d26ca70	0.040720403
160	0xbd6506e7	-0.055914786
161	0x3d22113c	0.039567217
162	0xbd578260	-0.05261457
163	0xbcebd18c	-0.028786443
164	0x3dcbe5c0	0.09955931
165	0xbe06824e	-0.13135645
166	0xbd63b65e	-0.05559384
167	0xbc8d7fe3	-0.017272895
168	0xbd8e457a	-0.06946845
169	0xbd016da5	-0.031598706
170	0xbd7c9ae1	-0.06167114
171	0xbaeb401b	-0.0017948182
172	0x3d01d83a	0.03170035
173	0x3dcd871e	0.10035537
174	0xbda6d8c6	-0.08146815
175	0xbc8fb31c	-0.01754146
176	0x3d72d2dc	0.059283122
177	0xbd1cdf98	-0.038299173
178	0xbd307673	-0.043081712
179	0xbc4ebaa2	-0.012617739
180	0x3d04079d	0.032233823
181	0x3c63dc34	0.013907481
182	0x3c9c0f7a	0.019050349
183	0xbd430bef	-0.047618803
184	0xbd1c2456	-0.03812059
185	0xba82e580	-0.0009986609
186	0x3cceceea	0.025245149
187	0x3bd529a8	0.00650521
188	0xbd5e7e0e	-0.054319434
189	0xbd2abfd3	-0.041686844
190	0x3d8a94f6	0.06766693
191	0xbc681884	-0.014166001
192	0xbd0bd697	-0.034140196
193	0x3cf01066	0.029304694
194	0xbc60318b	-0.013683687
195	0x3d736682	0.05942393
196	0xbcd9e951	-0.026600512
197	0xbdb1f7ad	-0.086898185
198	0x3dbdd20a	0.092685774
199	0x3e084892	0.13308933
200	0x3e27c5bc	0.16384023
201	0xbda73484	-0.081643134
202	0xbd007d74	-0.03136964
203	0x3dcb241e	0.09918998
204	0xbd08d472	-0.03340573
205	0xbcf9213c	-0.030411355
206	0x3d8653eb	0.06558975
207	0x3d94cfc9	0.072661944
208	0xbae3a24b	-0.0017367093
209	0xbd862b6d	-0.065512516
210	0x3dedaa22	0.11604716
211	0x3cd3f403	0.02587319
212	0x3d8a2fdc	0.0674741
213	0xba27e8a7	-0.00064052123
214	0x3bd406a8	0.00647052
215	0x3d6ce90f	0.05783945
216	0x3c85a56d	0.016314233
217	0x3dbffdc0	0.09374571
218	0x3dab521e	0.08365272
219	0xbc355bdb	-0.011069263
220	0xbd278b65	-0.04090442
221	0x3dba29b7	0.09089988
222	0xbbd1bbb0	-0.006400548
223	0x3c8f108c	0.017463945
224	0x3c9c71dd	0.019097263
225	0xbd86d5a2	-0.06583716
226	0xbdd7d983	-0.10539534
227	0xbcbf0657	-0.023318453
228	0x3ca740c4	0.020416625
229	0x3d0d908b	0.034561675
230	0xbd37eada	-0.044901706
231	0x3d8dfd45	0.06933073
232	0x3d959e0c	0.07305536
233	0x3debd130	0.11514509
234	0xbd6c1f23	-0.05764688
235	0xbc437cbf	-0.011931597
236	0x3deeba6c	0.11656651
237	0xbd78d5e3	-0.060750853
238	0xbdb4d573	-0.08829775
239	0xbb22e0c5	-0.0024853211
240	0x3d5715dd	0.052511085
241	0xbd3dccd3	-0.046337914
242	0xbd481812	-0.04885108
243	0xbb9a8b9e	-0.0047163507
244	0x3d17f713	0.037100863
245	0xbdc6de3a	-0.09710355
246	0x3d16e42e	0.036838703
247	0xbc85d14a	-0.016335148
248	0x3d397d58	0.045285553
249	0x3d8a82bc	0.06763217
250	0x3d1a0de6	0.03761091
251	0x3da27dee	0.079341754
252	0x3cadf46f	0.02123472
253	0xbcb548bc	-0.022129409
254	0xbdd1abe1	-0.102378614
255	0xbdfe9ec8	-0.12432629

conv2.bias f4 [64]
0	0x3d5c0790	0.05371815
1	0xb980691e	-0.0002449238
2	0xbd8342f1	-0.064092524
3	0xbc07c0da	-0.0082857255
4	0x3ccde036	0.025131326
5	0xbd62d0c6	-0.055374883
6	0xbd8c7023	-0.06857326
7	0x3c538245	0.012909477
8	0x3c982d07	0.018576158
9	0x394289f5	0.00018552675
10	0x3b3688ee	0.0027852613
11	0x3cd3a647	0.025836123
12	0xbd36d001	-0.04463196
13	0xbd5bbf97	-0.05364951
14	0xbd0b97a3	-0.03408016
15	0xbd6f154d	-0.058369923
16	0x3d9e7e81	0.077389725
17	0xbb716a37	-0.003683699
18	0xbd41e5a5	-0.047338147
19	0xbcab9747	-0.020946158
20	0xbd7089ac	-0.058725044
21	0x3dd9b371	0.10629929
22	0x3c0f97a5	0.008764182
23	0xbd3df32f	-0.046374496
24	0xbd75b531	-0.05998725
25	0xbcb5005b	-0.022094896
26	0x3ca30e43	0.019904261
27	0xbd1129bb	-0.035440188
28	0xbcf32ef0	-0.029685467
29	0x3b1f42ad	0.0024301216
30	0x3c650e29	0.013980427
31	0xbca85d66	-0.020552348
32	0x3da8a2ff	0.08234214
33	0xbd553441	-0.052051786
34	0xbd86335f	-0.06552767
35	0x3d196751	0.037452046
36	0x3b8bc9cc	0.0042659994
37	0xba964eef	-0.0011467616
38	0xbd26c502	-0.040715225
39	0xbcbabb42	-0.02279437
40	0x3ca97e65	0.020690152
41	0x3b80a4f6	0.003925915
42	0xbd8b7cff	-0.068109505
43	0x3ccb9cee	0.024855103
44	0x3cd9fc35	0.02660952
45	0x3d401a05	0.046899814
46	0xbd2c8378	-0.042117566
47	0xba0e6e52	-0.0005433309
48	0x392be2fc	0.00016392389
49	0xbcaf817d	-0.02142405
50	0xbcab7e18	-0.02093415
51	0xbc07753e	-0.008267699
52	0xbd44efde	-0.048080318
53	0xbd6d2289	-0.057894263
54	0xbd313def	-0.043271955
55	0xbdab1f91	-0.0835563
56	0xbd8ef73f	-0.06980752
57	0x3bd1ccc5	0.0064025843
58	0x3c9e4d26	0.019323897
59	0xbc1c0400	-0.009522438
60	0xbcb0b5fe	-0.021571156
61	0x3bf89448	0.007586036
62	0x3cd08a87	0.02545668
63	0xbd375afb	-0.0447645

conv3.weight f4 [128, 64, 3, 3]
0	0xbd6538e1	-0.055962447
1	0x3c20d926	0.009817397
2	0xbd20c686	-0.039251827
3	0x3c89b62f	0.016810505
4	0xbc95fe68	-0.018309787
5	0xbc6e7d2d	-0.014556211
6	0x3bfdfda0	0.0077511817
7	0xbd92136d	-0.071326114
8	0xbda8da42	-0.082447544
9	0xbd03104a	-0.031997956
10	0xbca54bb0	-0.020177692
11	0x3c3ace21	0.011401684
12	0xbd3b11f0	-0.045671403
13	0x3c9160c6	0.01774634
14	0xbcd5a569	-0.02607985
15	0x3d040c70	0.032238424
16	0x3d2c2a86	0.04203274
17	0x3d755b05	0.059901256
18	0xbce85f4d	-0.028365755
19	0x3cb33b0c	0.021878742
20	0x3c73b0fd	0.01487374
21	0xbc8937d2	-0.01675025
22	0xbcf9385d	-0.030422384
23	0xbb727b7e	-0.0036999877
24	0xbd04c900	-0.03241825
25	0x3d44a7e8	0.04801169
26	0x3cd715b4	0.026255466
27	0x3cd6db9c	0.026227765
28	0x3c3ad904	0.01140428
29	0x3c6e488f	0.0145436665
30	0xbc7460d6	-0.014915666
31	0xbcb786fb	-0.02240323
32	0xbad47d20	-0.0016211607
33	0x3d28ccf7	0.041211095
34	0xbdd5b967	-0.10435753
35	0xbc52d032	-0.01286702
36	0x3d2612f8	0.040545434
37	0x3c915d39	0.017744647
38	0xbc6ea68c	-0.014566075
39	0xbc07da42	-0.008291783
40	0x3c9fd67b	0.019511452
41	0x3b3eb91d	0.0029102035
42	0x3c981f38	0.018569574
43	0x3baee495	0.0053373077
44	0x3c8b1139	0.016975986
45	0xbccb7b7d	-0.024839157
46	0x3d3cf599	0.046132658
47	0x3c12335e	0.00892338
48	0x3c3a4bd6	0.01137062
49	0xbba07b63	-0.0048975213
50	0xbd534f22	-0.05158914
51	0x3c93f01a	0.018058825
52	0x3d2e8205	0.042604465
53	0x3cd716b7	0.026255948
54	0xbce99ef2	-0.028518174
55	0x3d01fc46	0.031734727
56	0xbbfad2c5	-0.00765452
57	0xbc567a99	-0.013090753
58	0x3ce8c235	0.028412918
59	0xb945ec1a	-0.00018875339
60	0x3c2942d7	0.010330877
61	0xbb1c4b43	-0.002384857
62	0xbc24776d	-0.010038239
63	0x3cd0996d	0.025463784
64	0x3d2bd8d4	0.04195483
65	0xbd1bdca9	-0.038052235
66	0xbcdb81db	-0.026795318
67	0x3d121421	0.035663728
68	0xbb4483e5	-0.0029985842
69	0x3a348017	0.0006885542
70	0x3d367b9c	0.044551477
71	0x3d822bdf	0.06356024
72	0xbd04be92	-0.032408305
73	0x3d573138	0.052537173
74	0xbc8da3c7	-0.01729001
75	0xbcb3fc71	-0.02197096
76	0xbcda0ede	-0.026618417
77	0xbd2289b9	-0.039682124
78	0x3cb94265	0.022614667
79	0xbd232b63	-0.0398363
80	0xbcfdef1b	-0.030997803
81	0x3c1d400a	0.009597788
82	0x3b976c30	0.0046210513
83	0xbd2bbe0e	-0.041929297
84	0xbc7813dd	-0.0151414545
85	0x3c8f39fc	0.017483704
86	0xbb622027	-0.0034504028
87	0x3ccf6d1d	0.025320584
88	0xb942df08	-0.00018584367
89	0x3cef450a	0.029207725
90	0x3d2b37d2	0.04180128
91	0x3c1950ec	0.009357672
92	0xbbadecca	-0.0053077685
93	0x3ce90074	0.028442599
94	0xbb38fd5b	-0.0028227184
95	0x3d3d07c0	0.04614997
96	0xbd56293b	-0.052285414
97	0x3caafa8e	0.020871427
98	0x3a9e7e9a	0.0012092174
99	0x3c9cd343	0.019143706
100	0xbd0604fe	-0.032719605
101	0xbd028182	-0.03186179
102	0x3c2b2d8b	0.01044787
103	0xbd35cc23	-0.044384133
104	0xbc708b0f	-0.014681592
105	0xbd1cb4d4	-0.03825839
106	0x3d44104b	0.0478671
107	0xbd1334fc	-0.0359392
108	0x3cdef54c	0.027216576
109	0x3c903a99	0.017606067
110	0xbcf3fe36	-0.029784303
111	0xbc71d8a3	-0.014761123
112	0xbcfd5fb6	-0.030929428
113	0xbca6c1a1	-0.020356001
114	0xbcfaac9b	-0.030599883
115	0x3b86bde8	0.004111994
116	0xbc9a802a	-0.018859942
117	0x3c96a542	0.018389348
118	0xbcc3af96	-0.023887437
119	0x3c640fe7	0.013919807
120	0xbd19f455	-0.03758653
121	0x3ca34b12	0.019933257
122	0x3c6e4de2	0.014544936
123	0x3bdd1fea	0.006748189
124	0xbbbb5822	-0.0057172934
125	0xbdab1ad9	-0.0835473
126	0x3b1842c0	0.0023233145
127	0xbbe2f769	-0.0069264662
128	0xbd431ced	-0.047635008
129	0x3d4239f0	0.047418535
130	0xbb8d21f4	-0.004307026
131	0xbd90131d	-0.070348956
132	0xbd08e33d	-0.033419836
133	0xbd009831	-0.03139514
134	0x3c214e70	0.009845361
135	0x3c9fa4bb	0.01948773
136	0xbbe73deb	-0.0070569417
137	0x3cf1d623	0.029521054
138	0xbd0077e0	-0.03136432
139	0xbb911c6a	-0.004428436
140	0x3ccc13a3	0.024911707
141	0x3c8e0ed7	0.01734106
142	0x3ba0b2f7	0.004904147
143	0x3d78b2cc	0.06071739
144	0xbc9ce506	-0.019152176
145	0x3b2ae62b	0.0026077132
146	0x3d65ae2f	0.056074318
147	0xbcfbe6dd	-0.030749733
148	0xbccd578d	-0.025066162
149	0x3d6ee936	0.058327876
150	0x3d3732b0	0.044726074
151	0xbd961415	-0.07328049
152	0xbd649e41	-0.055814985
153	0x3b083b08	0.0020787138
154	0x3cd84217	0.026398702
155	0x3c91f632	0.01781759
156	0xbd10b8e0	-0.03533256
157	0xba58cddf	-0.0008270423
158	0xbcbbd632	-0.022929285
159	0xbceb2eb3	-0.028708791
160	0xba8dd1b5	-0.0010819944
161	0xbd54b605	-0.0519314
162	0x3d047214	0.032335356
163	0xbcd737c1	-0.026271703
164	0xbc8a2eb2	-0.01686797
165	0x3c15f4bd	0.009152588
166	0x3d52b95f	0.051446315
167	0x3c9f9cd5	0.019483963
168	0x3ce419e7	0.027844382
169	0x3d6692d0	0.056292355
170	0x3cde9e68	0.027175143
171	0x3d1034d6	0.03520664
172	0xbcd4c4f9	-0.02597283
173	0x3c11ec2d	0.008906406
174	0xbc787444	-0.015164439
175	0x3c5f9bf7	0.013648025
176	0xbc531416	-0.012883207
177	0xbd309a89	-0.043116126
178	0x3bfe5ce9	0.0077625406
179	0x3d34d550	0.044148743
180	0x3cc21794	0.023692884
181	0x3b9f51d3	0.004862049
182	0xbd4dc2d0	-0.050234616
183	0x3b470367	0.0030367018
184	0x3c64aaea	0.013956765
185	0xbd9f37f0	-0.07774341
186	0xbd42b9b5	-0.047540385
187	0xbd14d969	-0.03634015
188	0x3cd70f66	0.02625246
189	0xbd512b32	-0.051066585
190	0x3bca6247	0.0061762664
191	0xbd1dbcd0	-0.038510144
192	0xba8673ae	-0.0010257864
193	0xbd74d836	-0.059776507
194	0xbd565f75	-0.05233713
195	0xbd18947b	-0.037250977
196	0xbdc29273	-0.09500589
197	0xbcec450a	-0.028841514
198	0x3d1ea734	0.038733676
199	0x3c305149	0.010761567
200	0xbcd2ab80	-0.025716543
201	0xbd28f74f	-0.041251477
202	0xbcdb2e9a	-0.02675562
203	0x3abb731f	0.0014301277
204	0xbbcd0de7	-0.006257761
205	0xbc37ec70	-0.011225805
206	0x3cf77879	0.030208813
207	0x3d7bbf33	0.06146164
208	0xbd0a53b9	-0.03377125
209	0xbc4e3460	-0.012585729
210	0x3d3e9649	0.04653004
211	0x3d26ac5f	0.04069173
212	0xb91f6109	-0.0001519957
213	0xb95c0ce1	-0.00020985633
214	0x3acd3ced	0.0015658416
215	0x3cc9b5b1	0.02462277
216	0x3c4dc6cb	0.012559603
217	0x3bbfe8a6	0.0058565913
218	0x3ce959d1	0.02848521
219	0x3d50c9fa	0.05097387
220	0x3d063350	0.03276378
221	0x3acd2eb0	0.0015654173
222	0x3ce71292	0.028207097
223	0x3d19e68c	0.037573382
224	0x3c12d5c7	0.008962101
225	0x3d0e8e98	0.034803957
226	0x3cf01fe1	0.029312076
227	0xbcdb5b18	-0.026776835
228	0x3d0ad183	0.033891212
229	0xbce203a0	-0.02758962
230	0xbb636106	-0.0034695282
231	0x3cbb845d	0.022890264
232	0x3d3d592b	0.046227615
233	0x3d00a87f	0.03141069
234	0xbca7c3ca	-0.020479102
235	0x3db40915	0.08790795
236	0x3d0daf57	0.034591045
237	0x3b0042dc	0.0019571101
238	0x3ca5751b	0.020197442
239	0xbd024bda	-0.03181062
240	0xbcf58a07	-0.029973043
241	0x3d5ce5a7	0.05392995
242	0xbcdb5015	-0.026771585
243	0xbcf56f7b	-0.029960385
244	0x3bd27e4d	0.0064237476
245	0xbd5c14c3	-0.053730737
246	0xbcae4c82	-0.021276716
247	0x3bdd31db	0.006750328
248	0x3b5dbb3c	0.0033833524
249	0x3d354f66	0.044265173
250	0x3b554071	0.003253963
251	0x3caf8029	0.021423416
252	0x3c8790d7	0.016548557
253	0x3d091089	0.033463035
254	0xbd4e364e	-0.050344758
255	0xbd24e5db	-0.04025827

conv3.bias f4 [128]
0	0xbbef3e1c	-0.007301105
1	0xbb9cbfa2	-0.0047835866
2	0xbbbaca57	-0.0057003903
3	0x3d40834c	0.047000214
4	0x3c3e2ee5	0.01160786
5	0x3d1374cd	0.03600006
6	0xbd09e110	-0.033661902
7	0xbd03a3c2	-0.032138593
8	0xb895c8de	-7.142288e-05
9	0xbd1f3aee	-0.03887456
10	0xbcb67cb4	-0.02227626
11	0xbb43b3d8	-0.0029861834
12	0x3bf27df7	0.00740027
13	0x3bf36c27	0.0074286642
14	0x3ce07320	0.027398646
15	0x3d087504	0.03331472
16	0x3bfbe0bf	0.007686704
17	0xbd20d4db	-0.039265495
18	0x3bc52718	0.006016623
19	0xbcc3b537	-0.02389012
20	0xbcdf435f	-0.027253805
21	0xbc80a4ec	-0.01570364
22	0x3cddd86a	0.027080733
23	0x3d12efd5	0.035873253
24	0xbb8616ac	-0.004092058
25	0x3c933c5f	0.017973123
26	0x3cfdc1a3	0.030976122
27	0xbd51be15	-0.051206667
28	0xbb87f7ac	-0.004149398
29	0xbc90c765	-0.017673204
30	0x3ca70528	0.0203882
31	0xbd04fe72	-0.03246922
32	0x3c8f0db0	0.017462581
33	0xbcd71d88	-0.026259199
34	0xbbdf5298	-0.006815266
35	0xbc2c5284	-0.01051772
36	0x3d0e4a04	0.034738556
37	0xbaa01733	-0.0012213945
38	0x3d0b8628	0.03406349
39	0x3c7027da	0.014657939
40	0xbb0db579	-0.0021623059
41	0x3d26cef7	0.04072472
42	0x3c379d76	0.011206975
43	0xbc9777ee	-0.018489804
44	0xbc1a133e	-0.009404002
45	0xbcb151ea	-0.021645505
46	0x3ca6ac25	0.020345757
47	0xbcc941e0	-0.024567544
48	0xbcba60fc	-0.022751324
49	0xbb7a7334	-0.003821564
50	0x3c988f07	0.018622888
51	0xbcfc9d87	-0.030836834
52	0xbd12f5f2	-0.035879083
53	0x3c0feb89	0.008784183
54	0x3c94bca1	0.018156352
55	0xbc80ac7d	-0.015707249
56	0xbcb72c07	-0.022359861
57	0xbb71409c	-0.0036812192
58	0xbb2cbbac	-0.0026356978
59	0x3c4dc5f8	0.012559406
60	0xbc81b590	-0.015833646
61	0x3cea491a	0.02859931
62	0xbd087ee4	-0.033324137
63	0x3b0fc3d9	0.0021936803
64	0x3c9e98b1	0.019359918
65	0xbcf68ed9	-0.030097412
66	0x3d263a49	0.04058293
67	0xbd1d67fb	-0.03842924
68	0x3d14be10	0.03631407
69	0x3cbb1695	0.022837916
70	0xbd09903d	-0.033584822
71	0xbbf56c0c	-0.007489687
72	0xbce1215f	-0.027481733
73	0x3ca7abad	0.020467604
74	0x3c6297d5	0.013830145
75	0xbd464c9f	-0.048412915
76	0x3c558ec4	0.013034526
77	0x3b9ad31a	0.0047248723
78	0xbcfb10b5	-0.030647615
79	0xbab2962f	-0.001362508
80	0xbc6e643c	-0.014550265
81	0xbd0cffc4	-0.034423605
82	0x3caee9af	0.021351663
83	0x3cb5c29b	0.022187522
84	0xbc46ea13	-0.012140769
85	0x3ba46450	0.005016841
86	0xbc8cc2b6	-0.01718269
87	0x3c55b9a0	0.013044745
88	0xbcd8b0f2	-0.026451562
89	0x3c8794bd	0.016550416
90	0x3cd03495	0.025415698
91	0xbcaac1a8	-0.020844296
92	0xbc5b7289	-0.0133940065
93	0x3bc7ec20	0.0061011463
94	0x3c382190	0.011238471
95	0x3c96de2d	0.018416489
96	0xbc0b7680	-0.008512139
97	0xbcb53ec5	-0.022124657
98	0x3c7cf3e6	0.015439009
99	0x3cb6d8e8	0.022320226
100	0x3a8d0602	0.0010759237
101	0x3c39dd4f	0.011344268
102	0xbd6249f1	-0.055246297
103	0xbd35b4e3	-0.04436196
104	0x3cf26692	0.029589925
105	0xbc077958	-0.008268677
106	0xbc950707	-0.018191827
107	0x3c508e5d	0.012729255
108	0xbd0fe1b1	-0.035127345
109	0xbd43a7a4	-0.047767296
110	0x3d0bc5ab	0.034124058
111	0xbca21d41	-0.01978934
112	0xbc3a879e	-0.011384873
113	0x3c4b67a7	0.012414849
114	0x3d06fa25	0.0329534
115	0xbcdbdd50	-0.026838928
116	0x3ca2d345	0.019876132
117	0xbd82a39f	-0.063788645
118	0xbbe6a7c8	-0.007039044
119	0xbc9528cb	-0.018207928
120	0xbd27486a	-0.040840544
121	0x3c3cb4fd	0.01151776
122	0xbbeafe46	-0.007171425
123	0xbbe0c016	-0.006858836
124	0x3c24c310	0.010056272
125	0x3c797488	0.015225537
126	0x3d1be30f	0.038058337
127	0xbbbd3aa4	-0.005774813

fc1.weight f4 [10, 128]
0	0xbdbb05ff	-0.09132003
1	0x3cf30895	0.029667178
2	0xbdc753f3	-0.09732809
3	0xbe0a002a	-0.13476625
4	0xbe04828e	-0.12940428
5	0xbdaeb0a8	-0.08529788
6	0x3d721e8c	0.059111163
7	0xbdce958d	-0.10087118
8	0x3ce9e052	0.028549347
9	0xbdc0ec06	-0.09420018
10	0xbace4176	-0.0015736062
11	0xbda23649	-0.0792051
12	0xbdc6e4af	-0.09711587
13	0x3ccf018c	0.025269292
14	0x3d9dfab0	0.077138305
15	0xbe24a4f6	-0.16078553
16	0x3d07ed7f	0.03318548
17	0xbded240a	-0.115791395
18	0xbe393b03	-0.18088917
19	0x3d8c7e72	0.06860055
20	0x3dd41b88	0.10356814
21	0xbd1d7803	-0.03844453
22	0xbe3a2149	-0.1817676
23	0xbddcfe07	-0.10790639
24	0x3d99b15e	0.07504533
25	0xbda10b57	-0.07863491
26	0x3d2589d8	0.04041466
27	0x3d5da0f5	0.05410858
28	0x3cb8c43b	0.022554507
29	0xbca58bfe	-0.020208355
30	0x3d9a6806	0.07539372
31	0xbc23d745	-0.010000055
32	0x3d1a385c	0.037651405
33	0xbd4f5a3d	-0.050623167
34	0xbde4d74a	-0.11173876
35	0xbd6a80e4	-0.057251826
36	0x3d556018	0.052093595
37	0xbbfda759	-0.0077408967
38	0x3d998c4a	0.07497461
39	0x3db1a63d	0.086742856
40	0x3d5173b7	0.051135745
41	0xbd4eeed6	-0.05052074
42	0xbd37049e	-0.044682138
43	0x3d3c44c1	0.045964006
44	0xbd0a5a04	-0.03377725
45	0x3e082cd9	0.13298358
46	0xbdedc02e	-0.11608921
47	0x3ad2f996	0.0016096111
48	0x3d1feeb6	0.039046012
49	0x3da9bb5f	0.08287691
50	0x3d365ff0	0.044525087
51	0xbcf95dcd	-0.030440236
52	0xbdfaed4d	-0.12252293
53	0xbd333b6e	-0.04375785
54	0xbdc5b7ae	-0.09654175
55	0x3d1ebcfc	0.03875445
56	0xbde38603	-0.11109545
57	0x3dcc941b	0.099891864
58	0xbd879980	-0.06621075
59	0xbdda87d9	-0.10670442
60	0x3d72f302	0.05931378
61	0x3cba0fe3	0.022712654
62	0x3d6f896c	0.058480665
63	0x3d60dd14	0.054898337
64	0xbd95b4a6	-0.073098466
65	0x3d864574	0.06556216
66	0x3d811675	0.063031115
67	0xbdb0c68a	-0.08631618
68	0x3ac2550c	0.0014826371
69	0xbe46461a	-0.19362679
70	0x3dc01377	0.093787126
71	0x3d1410f6	0.036148988
72	0xbd600520	-0.054692388
73	0xbe4f3fa7	-0.20239125
74	0xbe44de34	-0.19225389
75	0x3d8db3cb	0.069190584
76	0x3de26866	0.11055069
77	0xbe228d1f	-0.15874146
78	0xbda93434	-0.0826191
79	0x3d117cd9	0.035519455
80	0xbe08a597	-0.13344418
81	0xbd508d74	-0.05091615
82	0x3d470e3e	0.048597567
83	0xbcc609a4	-0.024174519
84	0xbe09d523	-0.13460211
85	0xbcd7f45f	-0.026361642
86	0xbd3c397b	-0.045953255
87	0x3c9322a5	0.017960856
88	0x3d256711	0.040381495
89	0x3dbeda77	0.093190126
90	0xbd5442b0	-0.05182141
91	0xbbb9c6ca	-0.0056694495
92	0x3d89eccb	0.06734618
93	0x3d858b63	0.065207265
94	0xbcc4d32f	-0.024026481
95	0x3c4e5dc1	0.012595595
96	0xbdae96b3	-0.08524837
97	0xbdabee4d	-0.08395062
98	0x3cb5608f	0.02214077
99	0xbddf1c98	-0.10894126
100	0x3db6513f	0.08902215
101	0xbe057c32	-0.13035658
102	0x3dbd62a6	0.09247331
103	0xbe1d2962	-0.15347818
104	0x3dda208c	0.10650739
105	0xbcba58e8	-0.022747472
106	0xbdba7e20	-0.09106088
107	0xbe0b264a	-0.13588825
108	0xbbe2709a	-0.006910396
109	0x3c80c4ba	0.015718807
110	0x3d1c1929	0.038109932
111	0xbc1b1218	-0.009464763
112	0xbba98538	-0.0051733516
113	0xbdfa61f9	-0.12225718
114	0xbd09e7f0	-0.03366846
115	0x3c18b3a5	0.009320174
116	0xbe195d3e	-0.14976975
117	0x3dd878cb	0.105699144
118	0x3ca74185	0.020416984
119	0x3de400db	0.11132976
120	0x3dbf9751	0.09355033
121	0xbd0322cc	-0.032015607
122	0x3d0f697a	0.0350127
123	0xbd78e452	-0.06076462
124	0xbc5a434d	-0.01332171
125	0xbdc8ad1c	-0.09798643
126	0xbdf94b1e	-0.121725306
127	0x3d14c54e	0.036320977
128	0x3d2c201c	0.04202281
129	0xbe234038	-0.15942466
130	0x3dd1cd6a	0.10244258
131	0x3db51588	0.088419974
132	0xbe0c147b	-0.13679688
133	0x3c9562e2	0.018235628
134	0xbd68e3c8	-0.056857854
135	0xbdf720ce	-0.12066804
136	0x3d58de1b	0.05294619
137	0x3dcf051d	0.10108397
138	0xbd2ab837	-0.041679587
139	0xbd500c29	-0.050792847
140	0xbd59e059	-0.05319247
141	0xbdcfac30	-0.10140264
142	0x3dcb0708	0.099134505
143	0x3d516568	0.0511221
144	0xbd4b5a14	-0.049646452
145	0xbd9844fd	-0.074350335
146	0xbdde4897	-0.10853689
147	0xbe1ec944	-0.15506464
148	0xbe1a9749	-0.15096773
149	0xbdaa5391	-0.0831672
150	0x3d9c27e2	0.076247945
151	0x3dde9a3d	0.10869262
152	0xbde831f7	-0.11337655
153	0xbdad626f	-0.0846604
154	0xbdef1105	-0.11673168
155	0xbe3c648b	-0.18397729
156	0x3dd301b6	0.10303061
157	0x3d37ab9b	0.04484139
158	0xbda48278	-0.080326974
159	0xbd87542c	-0.066078514
160	0xbdc067c3	-0.09394791
161	0x3d1d8b69	0.03846303
162	0xbd996080	-0.07489109
163	0xbdfcf248	-0.12350899
164	0xbd901c91	-0.070366986
165	0x3cda7d46	0.026671063
166	0xbd8afcd2	-0.06786503
167	0xbe10829c	-0.14112324
168	0x3cc908f6	0.024540406
169	0x3d634c27	0.055492546
170	0xbcc68a23	-0.02423579
171	0xbdc3c589	-0.09559161
172	0xbd5f92eb	-0.05458347
173	0xbd4b9bff	-0.049709316
174	0x3d8eb8d4	0.06968847
175	0x3d6768b8	0.056496352
176	0xbe391a50	-0.18076444
177	0xbe03b34c	-0.12861365
178	0xbe0d8115	-0.13818772
179	0x3e1887bb	0.14895527
180	0x3dc5fae9	0.09666998
181	0xbd95cd37	-0.07314532
182	0xbda702d9	-0.0815484
183	0x3ce1c3a5	0.02755911
184	0x3da7d6e4	0.08195284
185	0x3cdfdc15	0.027326623
186	0x3d2cfeaf	0.042235073
187	0xbd3ba695	-0.045813162
188	0x3d9ac625	0.07557324
189	0xbde3d1fc	-0.11124036
190	0xbe2adf92	-0.16686848
191	0xbde01732	-0.10941924
192	0xbc7fdd7c	-0.015616771
193	0x3da64c6d	0.08120046
194	0x3db70281	0.089360245
195	0x3d0151c3	0.031572115
196	0xbd9e2572	-0.07721986
197	0x3daba5d3	0.08381238
198	0xbcf6682d	-0.030078972
199	0x3d3762a5	0.04477181
200	0xbdaa409d	-0.08313105
201	0xbe323d4a	-0.17406192
202	0x3de3b95d	0.111193396
203	0xbe8158dc	-0.25263107
204	0xbd93e27d	-0.072209336
205	0x3cfa3d04	0.030546673
206	0x3db1099b	0.0864441
207	0x3d03148e	0.032002024
208	0xbd80b3c5	-0.06284288
209	0x3e04b7f4	0.12960798
210	0x3e1b4643	0.15163521
211	0xbe48a202	-0.19593051
212	0x3cc84833	0.02444849
213	0xbe7aeaa2	-0.24503568
214	0x3d4ff894	0.050774172
215	0x3d8acc7b	0.06777283
216	0x3cd1c7f7	0.025608046
217	0xbbd7a685	-0.00658113
218	0xbcb8321b	-0.02248483
219	0x3d0e9a21	0.034814958
220	0xbd1286d3	-0.03577311
221	0xbc947db7	-0.018126352
222	0xbda4619a	-0.080264285
223	0xbd035198	-0.032060236
224	0xbe8266a4	-0.25468934
225	0xbbc1a08e	-0.005909032
226	0xbe350add	-0.17679925
227	0xbd44a4c5	-0.0480087
228	0xbe2816cc	-0.16414946
229	0x3d17cf12	0.037062712
230	0xbe172441	-0.14759924
231	0x3da4fb67	0.08055764
232	0x3d77999b	0.060449224
233	0xbd5bc0ca	-0.053650655
234	0xbe004e5f	-0.12529896
235	0xbdbeb9c2	-0.09312774
236	0xbd84e874	-0.064896494
237	0x3d08931d	0.033343423
238	0x3d11777b	0.035514336
239	0xbe09f454	-0.1347211
240	0x3dbb8a94	0.09157291
241	0xbde9013a	-0.11377187
242	0x3d9bc0ff	0.076051705
243	0xbdc09700	-0.09403801
244	0x3c5ef85a	0.013609016
245	0xbdc65e58	-0.096859634
246	0x3d7cccce	0.061718754
247	0x3d92423d	0.0714154
248	0x3e135c71	0.14390732
249	0x3dcd59b0	0.10026872
250	0xbda713df	-0.08158087
251	0xbd4a37fb	-0.049369793
252	0x3c43e6c9	0.011956879
253	0x3de8ac08	0.11360937
254	0x3ce4f15d	0.027947122
255	0x3e1ef1c8	0.1552192

fc1.bias f4 [10]
0	0xbd0bb781	-0.03411055
1	0x3d12ca36	0.035837375
2	0xbd1f6e84	-0.038923755
3	0x3c6dab98	0.014506243
4	0xbd613167	-0.054978754
5	0xbd800404	-0.06250766
6	0xbd70412a	-0.058655895
7	0xbd9d8c54	-0.07692781
8	0x3e09f00d	0.13470478
9	0x3d429060	0.047500968
