outputs/2025-01-08/12-28-04/artifacts/model.pth (torch, 378536 bytes, 8 tensors)

conv1.weight f4 [32, 1, 3, 3]
00000000: 31d5 85be e619 f0bb 2356 d23e c887 7fbe
00000010: 0c28 1ebe 7295 ad3e b0b8 9bbe b1d1 1d3b
00000020: cc60 b23d 6ec3 d8bb f8e8 223e f61c ea3d
00000030: 0ecb 67be d646 703e 5fb0 8d3e cc18 8f3e
00000040: ae6d 693e 06e8 9b3e 3af8 42be befe d7be
00000050: 011e c6be 224c d3bd 762c b6be b3a4 4e3e
00000060: 675a 313b 3e14 6f3e 6e5c 023f 032d 8ebe
00000070: 0196 c5bd 4b05 01bd 3b18 6abd a81e 5d3e
00000080: ec1c b93e b923 a83d 795f da3d 3215 6c3e
00000090: aa00 a1be e2a7 023e 66f6 ec3b 6cec afbe
000000a0: e77c ff3d 62d1 89bd de9d 9cbe 30da dfbe
000000b0: 20e8 b0be f83e 96be b613 fbbe 44dd babe
000000c0: 207d fabc fb37 4b3e f6a3 1ebe 1645 bf3e
000000d0: 8bf3 423e b638 b73e 2c4f d13d 17f5 c8bc
000000e0: 5916 f93e 183d 91be 6006 4c3d 670b c83e
000000f0: c1c2 cfbe 3422 2abe a0e2 7bbe c797 733e
00000100: a8be 18be 3d03 b83e be1c a0be b72c a53e
00000110: f050 0b3e 899b 88be e52b 26be eaa6 3abd
00000120: 6e5a aa3d ee7e 7b3d 422b 3b3c 9e7f 8e3e
00000130: 1852 12bd 02d9 b2be 98f2 f23b dd36 a93e
00000140: f9e4 cf3e eac9 f7bd 1bd1 4e3e 754a 46bc
00000150: b3ce 8f3e 9690 0f3e 0247 37bd 8929 b9be
00000160: 41dd f43d fcd7 03be 2df0 ccbe b8bc d9be
00000170: 0a11 48be 9acf 4f3e 8e8c 6cbe cef3 8fbe
00000180: c4e8 d53e c1ce 81be 8a5c d3be dd6a dabd
00000190: b23c d53e 20bb e13d d5da ba3d 2df8 0b3d
000001a0: 493c 78bd 9bac 633d 3389 6dbe 7fae 01be
000001b0: e044 bbbd 33a3 653e f4b5 16bf 10d5 a03e
000001c0: dde5 0b3d 3008 163c b630 a7be fc2d c43e
000001d0: 5826 8fbd 9316 a3be 2de7 acbe 6f2e 85be
000001e0: f97d d4be ce86 ca3b 6366 b63e 9e3e bcbe
000001f0: 7a25 6f3e 8791 6f3d 9e51 fc3b 422e 0b3e
00000200: 799a 203e 374c 4cbe c6d8 6e3e 1bed 563c
00000210: 887e cfbe e819 e6be a5d6 08bf 192e e83e
00000220: d0ce 953e 8f85 0ebf f2df 663e f418 9dbe
00000230: b6fe ecbe 585c c23c 9c88 d4be f714 23be
00000240: 5efa 933d 132e 783e 57ac ebbe c989 aa3e
00000250: 6978 633e 054c 1cbd d6f0 06bc a7f2 aa3d
00000260: d6f0 b1be eaf0 0f3e 7864 dd3e b1cb 5d3e
00000270: 3008 cebe bf87 87be fc11 493e ac41 47be
00000280: 8b4a a6be e615 15bf 10c9 6b3e 102f cc3e
00000290: 1b05 0e3e 4163 f4bd 210c 443d 15eb 833e
000002a0: 0b06 37be b7aa dfbe b05e e1be 9312 8bbe
000002b0: b9ff babc 3105 b2be efd4 f83d be43 a0be
000002c0: c2b4 6dbe d4da e33e 3bc2 a83e 4e58 b83d
000002d0: 921e 26bd 1f6b 583d 6cce 293e 527d f1bd
000002e0: 558d 9fbe 6884 923e a1e6 23bd 89c5 563e
000002f0: 80ec c83d b59d 95bd 81c5 8e3d 203b 853e
00000300: c7ed a33e cf8f 353e cac4 843e 1a2d 9ebd
00000310: 61cc 763e 4d57 17bd 33de 963e fbf6 95be
00000320: ca0f 01be 5b8b 843e fc43 b9be 1fcf 8dbe
00000330: e910 783e 6ee5 65bc 5ca2 a13e 7d61 0e3d
00000340: 76ea 63be 31d0 033e 5bc8 b33c f181 8cbe
00000350: 93f3 ab3e 1096 433e a82c 4b3e c674 11be
00000360: 65b1 b23e 968a c03e 92d8 3b3e 257e 363e
00000370: daeb acbd 54a1 f7be 5df5 583e 924b 29be
00000380: 5a8e c1be fe71 5b3e 90d3 a0bd d7c1 073e
00000390: 9887 3e3e 1082 9a3e f28e 42be 78a6 883e
000003a0: bab7 b1bc c7c9 0b3d 13b6 aabd c741 bebe
000003b0: a6a2 0bbf 4f94 b03e d453 a83d 7f0b c4bd
000003c0: 18f5 a53e 647b 093e ea6f 713e 39db 983e
000003d0: 7912 91bc 3cb3 b5be 359e 4fbe da3d e9be
000003e0: 0acd eabe ca67 03bf 9d7d 013e cfb1 f1be
000003f0: 8e3b a5be 2628 6dbe 8868 933e ebd4 483c
-0.26139215 -0.007327306 0.41081342 -0.2495414 -0.15444964 0.3390308 -0.30414343 0.0024081285
0.08709869 -0.006615094 0.15909183 0.11431305 -0.22636053 0.23464522 0.27673623 0.27948606
0.22795746 0.30450457 -0.19040003 -0.4218654 -0.38694766 -0.103172556 -0.35580796 0.20180015
0.002706194 0.23347566 0.50922287 -0.27768716 -0.096477516 -0.03149919 -0.057152014 0.21593726
0.36154878 0.082099386 0.10662741 0.2305496 -0.3144582 0.12759355 0.0072315214 -0.34360063
0.12474995 -0.0672939 -0.30589193 -0.4372115 -0.34552097 -0.29344916 -0.49038476 -0.36496937
-0.030577242 0.19845574 -0.15492234 0.37357396 0.19038217 0.35785455 0.10220179 -0.02453093
0.48649862 -0.28366923 0.049810767 0.390712 -0.40578273 -0.1661461 -0.2459817 0.23788367
-0.1491648 0.3593997 -0.3127193 0.32260677 0.13605094 -0.26681164 -0.16227682 -0.045569338
0.08318029 0.061400346 0.011423888 0.2783174 -0.035722822 -0.3493119 0.0074141733 0.3304967
0.4060438 -0.12099059 0.20196955 -0.012102713 0.28087386 0.14019999 -0.044745453 -0.361645
0.11956263 -0.1287536 -0.4002699 -0.42526793 -0.1953775 0.20294037 -0.23100492 -0.28115696
0.4177915 -0.25353053 -0.4128154 -0.10664914 0.4164787 0.110220194 0.0912377 0.034172226
-0.060604367 0.05558453 -0.23196869 -0.12664221 -0.09143996 0.22425537 -0.5887139 0.31412554
0.03415476 0.0091572255 -0.3265435 0.38316333 -0.06989735 -0.3185316 -0.33770123 -0.2601199
-0.4150236 0.0061806208 0.3562499 -0.36766523 0.2335414 0.058488395 0.007700159 0.13591865
0.15683927 -0.19950949 0.2332488 0.013118054 -0.40526223 -0.4494164 -0.5345252 0.4534767
0.29259348 -0.55672544 0.22546366 -0.306831 -0.4628808 0.023725674 -0.41510475 -0.15925966
0.07225488 0.24236326 -0.46029922 0.33308247 0.22213902 -0.038158435 -0.008236131 0.083470635
-0.34754056 0.14056745 0.43240714 0.21659733 -0.40240622 -0.26470754 0.19635767 -0.19458646
-0.32478747 -0.5823654 0.23025918 0.39879656 0.13869135 -0.11932994 0.04786313 0.2576529
-0.17873399 -0.43684933 -0.44017553 -0.27162609 -0.022827016 -0.34769586 0.12149989 -0.31301683
-0.23213485 0.4450289 0.32960686 0.09001218 -0.040556498 0.052836534 0.1658265 -0.11791481
-0.31162515 0.28616643 -0.040014867 0.20973791 0.09810734 -0.07305471 0.06971265 0.2602167
0.32017347 0.1773064 0.25931388 -0.07723446 0.24101402 -0.03694849 0.294664 -0.29289994
-0.1260368 0.2588757 -0.3618468 -0.27697083 0.242252 -0.014031751 0.31569183 0.03476094
-0.22257408 0.12872387 0.021946123 -0.27442887 0.3358427 0.19100213 0.19841254 -0.14204702
0.34900966 0.37605733 0.18344334 0.17821558 -0.084434226 -0.4836527 0.21187349 -0.16532734
-0.37803918 0.21430203 -0.07852852 0.13257538 0.18606412 0.30177355 -0.18999842 0.26689506
-0.021694053 0.034127977 -0.08335509 -0.3715956 -0.54545057 0.3448815 0.08219114 -0.09572505
0.32413554 0.13425976 0.23577848 0.29854754 -0.017709004 -0.35488307 -0.20275195 -0.45555001
-0.45859557 -0.51330245 0.12645574 -0.4720597 -0.32272 -0.23159847 0.2879069 0.012257795

conv1.bias f4 [32]
00000000: 9c67 8b3c 05b3 55be 1c1e 50be 41bf 713e
00000010: c587 943e 1ecb 5ebc e3a6 7bbc 65e2 743d
00000020: ce43 a3bd 93ef d63d d1b6 8e3e c3a8 c4bd
00000030: 4894 b0bc a190 e03d e4fb a43e feb8 8f3e
00000040: e1db 8b3d fadb 543e 66dd e13d 68a6 5c3e
00000050: 1df3 033e 3348 713e ed82 c83d 13ac 6f3d
00000060: da46 93be 6446 483e 92cf 9a3d c0f7 fcbd
00000070: 1ec7 29be 0eb7 ac3c 56a5 0ebe 6b04 173e
0.017017178 -0.20869072 -0.20323986 0.23608114 0.29009834 -0.013598232 -0.015359613 0.05978622
-0.07971917 0.10494914 0.27873853 -0.09602501 -0.021555081 0.10965086 0.32223427 0.28070825
0.06829048 0.2078704 0.110285565 0.21547854 0.12885709 0.23562698 0.09790597 0.058513712
-0.28764993 0.19558102 0.07559122 -0.12351942 -0.16579863 0.021083381 -0.13930258 0.14747779

conv2.weight f4 [64, 32, 3, 3]
00000000: 2db4 a6bc 0de0 ebbd a95c f13d b5f6 373d
00000010: d0d7 39bc f40f d73c 2cba bf3d 1854 8a3c
00000020: 609c c2bb feb1 ae3d 5873 24bd 3c6a 2dbe
00000030: dab4 1a3d 4411 d93c 3fbf 2fbe 793c ea3d
00000040: 7b2d 1ebc 764b c8bd 7bdb 36bc ecda c7bd
00000050: 2326 42be bc67 84bd e7c7 30be b1ca e4bd
00000060: 94e1 f8bc 2b92 27be e394 9abd 04d5 043d
00000070: 8f13 c3bd 757d 17be 1c92 a23d 5746 573d
00000080: 49cc 29be 33ab 8b3d fe23 debc 3a14 c6bd
00000090: 7e5b 2abd 0855 343d 7346 bf3b 8ac3 b3bd
000000a0: a9e9 943c e439 31bc c253 25bc 5482 cfbc
000000b0: 2651 8fbc 7adf 76bd e377 5c3b aef4 e5bc
000000c0: 2676 c1bd 4b01 51bd 7c84 c3bc ffa1 d6bd
000000d0: 8a4d a0bd d12a 45bd c6b1 ffbb 30d5 20be
000000e0: 85dc b7bd dc6f 0e3d 93d8 80bd cdea b53c
000000f0: 290e 173c 9db7 b7bd 981f f2bd f222 7c3d
00000100: 3253 02be 864c ccbd e2fa 843c 9634 e0bc
00000110: c78e 99bd 6fd3 f93c 9a1c 7dbd 507a 32be
00000120: c3e5 123d 5fc3 a83d 3af6 14be 9fae e03c
00000130: fd10 823c cfde b8bd d0fc 023d 6a49 963d
00000140: 760e 65bd 531e af3c 1eb8 6cbd 0314 1bbe
00000150: 1d48 aa3c fe6c 7dbc a149 1bbe 684f 7ebc
00000160: 2935 8f3b d2f8 b8bd 67b5 b13c d9f6 473d
00000170: 6a2e 8a3d 3aa4 be3d 144a 613d 0082 4d3d
00000180: d021 0bbc 7112 693d c078 9e3d 34fd 2e3c
00000190: 46f8 09bd 04d9 43be 06f9 9bba 3623 623d
000001a0: 6977 f6bd ef74 8e3d 3fa9 eb3b fe0d 00be
000001b0: cd7d 1abb 0095 8b3c b390 00be 7408 72bd
000001c0: 65d7 b03d a36b aebc 6398 92bd 8f17 013d
000001d0: 2985 adbd bdee 4b3d 4536 873c cee0 dd3c
000001e0: c4f3 263d 9ecd b6bc 9e48 483d 5482 08bd
000001f0: c50c 14bd 8cbd a93d 7c78 25bd 91a4 ddbc
00000200: 832e 11bd 400d 13be f798 a0bc 6d03 c7bb
00000210: 926e 4abd 7697 87bd 48ab 5c3d 1c6a 17bd
00000220: 7e3e 6ebc 9ae1 b83c e73b 57bc 5385 a03d
00000230: 58c0 c73d 3446 d83b fb7f f03d 7697 f33d
00000240: 5f2d f23b 8f67 823d 056c 98bd 903c 4c3d
00000250: bf83 873d c667 f43c 0398 033d 734e 053e
00000260: 1d3a 37bc 1091 6bbd 921f f4bd c279 01bd
00000270: 25fc 15bd 7fb9 eebd cec7 aabd 8169 5bbd
00000280: b5ef dfbc aad2 a1bd bb05 4dbe 2101 53be
00000290: d235 03be 2019 dabd 020a 20be 54ae 16bd
000002a0: e1f1 19be afaa eebd e5d9 33be a423 0e3d
000002b0: 773b 8f3d 6ef3 4a3d b6c3 68bd e1c0 7cbc
000002c0: d7ac a63b 6e71 b2bd dd93 e43b feb9 543c
000002d0: 1ad4 5b3d e238 05bd d44e 35bd 943b 6c3d
000002e0: 8999 4bbc 5994 a4bd 7457 773d e7e2 e13c
000002f0: 1869 4bbd ef0e 48bb 5a67 413d c997 0dbe
00000300: 369f ed3d c190 1f3d 74a4 15be 0a30 263c
00000310: 0bad 973d 7319 d2bd f0d6 17bc 2f84 9e3c
00000320: 65d9 353d 48cc 9e3c 3568 953d 95cd c43d
00000330: 73ee 9e3c 6972 d6bc 67e0 7b3c e60e 113c
00000340: 437c 25bc 2630 edbd 1a1d cabc 5fae 1f3d
00000350: 74ec 65bd e6f3 543c d3f0 a13c b6c5 81bc
00000360: b8ad 10b9 0677 c23c ca17 0cbe cc1c eb3c
00000370: a365 293c 116e 143d d706 173c 138b b43d
00000380: 46b1 b93c 9a78 443d c090 ee3c 16f8 a5bd
00000390: 9387 9c3d a4ab 2b3d 7e87 a13b 8082 123d
000003a0: d57d c33d 7c69 80bd 5b8e 2e3d 6957 2f3d
000003b0: 271f b1bc e4c7 c43c 998a 863d c476 80bb
000003c0: e563 30bd 151f 0ebd 6826 e8bc b66f 603c
000003d0: 7f6c 71bc 1c7c 01bd 5780 08be 3123 703c
000003e0: 0bdd 3e3d 6dbe b2bd 5575 6d3b f6fb 8a3d
000003f0: dc9c 9dbc c6e2 16be 2c2b 313d faee 41bc
-0.020349586 -0.11517344 0.11785252 0.044913013 -0.011342958 0.026252724 0.09361681 0.016885802
-0.0059390515 0.08530043 -0.040149063 -0.16935056 0.03777013 0.02649749 -0.17162798 0.114373155
-0.009654398 -0.09780018 -0.011160727 -0.09758553 -0.1895986 -0.06465098 -0.17263757 -0.11171473
-0.030381002 -0.16364352 -0.07547929 0.03242971 -0.09525215 -0.14793952 0.079380244 0.052557316
-0.16581835 0.06819763 -0.027116772 -0.09671827 -0.04159116 0.044026405 0.0058372556 -0.087775305
0.018177824 -0.010817025 -0.01009077 -0.0253307 -0.01749475 -0.060271718 0.0033640794 -0.028070774
-0.09446363 -0.051026624 -0.023866884 -0.10480117 -0.078272894 -0.048136536 -0.0078031747 -0.15706325
-0.08977608 0.034774646 -0.06291308 0.022206688 0.009219685 -0.08970568 -0.11822432 0.061556764
-0.12727049 -0.09975533 0.016232911 -0.027368825 -0.07497936 0.030496327 -0.061794855 -0.17429471
0.03586365 0.08240389 -0.14547053 0.027427016 0.015877241 -0.09026872 0.031979382 0.07338221
-0.055921994 0.021376764 -0.057792775 -0.15144353 0.02078634 -0.01546788 -0.15164806 -0.015521862
0.004370351 -0.09031834 0.021692945 0.048819397 0.06747134 0.093086675 0.055002287 0.050172806
-0.008491948 0.056902353 0.07737875 0.0106804855 -0.033684038 -0.19125754 -0.0011899776 0.05520936
-0.120344944 0.06955897 0.0071918066 -0.12505338 -0.0023573518 0.017038822 -0.12555198 -0.059090093
0.08634833 -0.02129156 -0.07157972 0.031516608 -0.08472664 0.049788225 0.01650537 0.027084734
0.040759817 -0.022314843 0.04889738 -0.033327416 -0.03614499 0.08288106 -0.040398106 -0.02705601
-0.035444748 -0.14360523 -0.01960419 -0.0060734064 -0.049421854 -0.06620686 0.053874284 -0.03696643
-0.0145412665 0.022568513 -0.01313684 0.078379296 0.097534835 0.0066001657 0.1174316 0.11894123
0.0073906626 0.063674085 -0.07442478 0.049862444 0.066169254 0.02983464 0.03212739 0.13018207
-0.011183289 -0.05751139 -0.11920084 -0.031610258 -0.036617417 -0.11656474 -0.08338891 -0.053567413
-0.02733598 -0.07901509 -0.20021717 -0.206059 -0.128135 -0.106493235 -0.15628818 -0.036787346
-0.15033676 -0.11653649 -0.17563589 0.03470196 0.06993764 0.04954856 -0.05682727 -0.015426845
0.005086522 -0.08713041 0.0069756345 0.012983797 0.053669073 -0.03252495 -0.04426463 0.057674006
-0.012426742 -0.080361076 0.060386136 0.027574016 -0.049660772 -0.003052648 0.047217704 -0.13827433
0.11602633 0.038956407 -0.14613515 0.010143289 0.07406052 -0.1025876 -0.009267554 0.01935014
0.044396777 0.019384518 0.072952665 0.09609524 0.01940081 -0.026177602 0.015373326 0.00885365
-0.010100427 -0.11581449 -0.02467208 0.038984653 -0.056133702 0.012997603 0.019768154 -0.015841346
-0.00013797625 0.023738395 -0.1368095 0.028700255 0.0103391735 0.03623778 0.009217939 0.08815589
0.022667538 0.047966577 0.029121757 -0.08103959 0.07643046 0.041911736 0.004929482 0.035768986
0.09545485 -0.062701195 0.04261623 0.04280797 -0.0216213 0.024021097 0.06569404 -0.003920408
-0.043064017 -0.03469761 -0.028338626 0.013698509 -0.01473534 -0.0316125 -0.13330208 0.014656828
0.04659752 -0.08727727 0.0036233265 0.06786339 -0.019239835 -0.14734945 0.043254063 -0.011836762

conv2.bias f4 [64]
00000000: fba8 2c3d ec6a a3bb 4be2 5bbd fd1e e1bc
00000010: f847 433c 2df0 193c a595 4fbd a99b 9cbd
00000020: adff a0bc f634 c9bd e060 2a3b 6c90 adbc
00000030: 06d9 163d 6a52 88bd b032 19bd 937b 05bb
00000040: 3229 38bc e51e 06bd 0b68 9fbd a233 d83c
00000050: 6bb0 25bd f615 933b 066e 6fbc 8e5b 69bc
00000060: 4754 113d 930b 1d3d e1bd 4c3d f0cc 1dbd
00000070: 2094 9cbc 53b2 abbd 8a1b abbc 6e9f a13c
00000080: bb78 47bb e6f2 06bd ca0e 2a3d 0bd2 35bd
00000090: a9f5 8cbd a615 3bbd c17b f53c ef9d 363c
000000a0: 9ed2 a1ba db52 c0bc c1de ed3c 98f7 6a3d
000000b0: cca6 43bd c5e4 eabc b631 1cbd b9bf 123d
000000c0: 2987 9abd 0401 2ebd 0578 68bd 388c 03bd
000000d0: 3a4a ba3b a647 1b3d 52a7 93bd 1d2e 82bd
000000e0: 58bf 733d 80c1 b93c 5831 93bd 0411 903c
000000f0: 2e75 5dbd d40a c6bc 63e2 76bb 3151 833c
0.04215334 -0.0049871113 -0.053682607 -0.027480597 0.011919014 0.009395641 -0.05067982 -0.07646877
-0.019653166 -0.098245546 0.0025997683 -0.02118703 0.036828063 -0.06656344 -0.037401855 -0.0020367845
-0.0112402905 -0.032744307 -0.077835165 0.026391808 -0.04045145 0.004488702 -0.014613634 -0.01424302
0.035480764 0.038341116 0.04998577 -0.03852552 -0.0191136 -0.08383622 -0.020887155 0.019729342
-0.0030436951 -0.03294649 0.04151801 -0.044389766 -0.068827935 -0.045674942 0.029966237 0.011146053
-0.0012346094 -0.023477009 0.029036881 0.05736503 -0.04776649 -0.028673539 -0.038133346 0.035827372
-0.07545311 -0.042481437 -0.056755085 -0.032116145 0.005685118 0.037910126 -0.07209648 -0.06356452
0.05950865 0.022675276 -0.07187146 0.017586239 -0.05406683 -0.024175085 -0.0037671558 0.016029926

conv3.weight f4 [128, 64, 3, 3]
00000000: 3882 ebbc 28cf a5bc 2f73 0fbe 0e21 0ebc
00000010: e689 003c a4b5 03be 280b 473c 7ec8 193c
00000020: 4889 9b3d 1e25 57bd aaa5 1ebd 2150 173e
00000030: bf40 77bd 660f a5bd 4d12 72bd 0b40 503d
00000040: da8b 25bd 2229 06be 5081 45bc 2de6 253d
00000050: ec59 16bc c588 2a3d 3081 9cbc 46bf 10bd
00000060: fc5e 0c3c 1087 6cbc b3eb ccbc 7b7f 06bd
00000070: 2abc 8dbd 04f8 a93c c45b a83c 260e 4d3c
00000080: d1a5 83bd ca08 033d 99ac 12bd 1e01 223c
00000090: 15c5 f0bc adae a8bc fcd3 00be 0f2d 84bd
000000a0: 55e4 19be 5157 36bd b83a 16be a9b8 b8bd
000000b0: 0f10 2e3d 670f 57bd 0a96 643d 7c1d cdba
000000c0: 92e1 e7bd b23c e8bc 3451 99bc c9e6 6d3c
000000d0: 5a98 06bd b177 acbc 061a f23b c24b ccbd
000000e0: 4374 48bd 0953 b53b 2c24 963d b269 6ebb
000000f0: 9632 133d 31ab c2bd 2248 06be e327 b53c
00000100: c9eb 1e3b ced5 99bd b2b7 4ebd b27e 00bd
00000110: 5849 ba3c 75c7 8a3d 1c59 8fbc 54f1 30bd
00000120: 5cea 36bd 0f99 613d 22df 09bd 4a0b d03b
00000130: 6988 54bd 2dd6 abbc e4fc e33c 2323 0a3d
00000140: d68a 41bd dc33 00bc 2b9e 05bd 0bc9 cdbb
00000150: 2586 6c3d a3e3 88bc c3be 4f3c e2c8 ad3d
00000160: b0f0 d13c 50c2 14bd 69f9 9e3c f1f0 78bd
00000170: 79e5 18bd c571 1bbd 96b1 b93c 5092 413d
00000180: 3608 c43c 5f24 bcbc 5286 91bd 858d 7e3b
00000190: cbc1 363d 7e7b c83d aee8 653d c846 88bc
000001a0: 7570 73bd 35b7 80bc 89ce 17bd 269e 35bd
000001b0: 5ee2 533b 2fee 6b3c a5fc 8d3d 3e92 7fbd
000001c0: b725 73bd ea6d 433d a0db e3bd 14bd 79bd
000001d0: 3e2f 01bd d831 9abc 0cd1 603c 0e7c 03bd
000001e0: 5bb5 cebc 4412 11bc 4a9f b73c ee99 843c
000001f0: d3e7 043d 8e29 853c 6524 acbd 8e01 813b
00000200: 9791 7a3c c640 e03d cfda 613c d771 febd
00000210: 852e ea3d f2f6 953d c356 1a3d 4067 303a
00000220: 00da 1bbc 7f8f 06bd a6b7 d23c 4317 9bbc
00000230: cc5f 7f3c a054 b93a 0039 26b9 f475 643c
00000240: 938a 40bc b112 6d3d 2b46 493d 6396 09bd
00000250: 38b9 8abd 2462 343d 15e0 d3bc b0e6 14bd
00000260: 1708 18bd 04bc e83b c0d7 513c 25a0 bfbc
00000270: d921 2bbe 87b9 00bd 0d60 0e3d ae2d 82bb
00000280: 9570 81bc c01f 83bd d6a2 4e3c 114d 483d
00000290: b7bb d03d 91e7 c13d 6361 9e3c 2e86 153b
000002a0: dcf3 5c3d 5228 a23c c4fe 4ebb ff95 19bd
000002b0: 6ccc 2d3c e0cb cabc a37a 96bc 56d9 b23c
000002c0: 809d c1bc 22d2 bf3c c3ba febc 7ce2 3bbc
000002d0: 0d4f 4abc 6d2a a4bd db1b fd3d 9d4d 093d
000002e0: 98d1 95bc 9ac2 b2bd 7329 293d c1b7 08bd
000002f0: e52d 04be 9fd4 3cbd 276f 183d 9759 d43d
00000300: 24b8 3abc a92c 0ebc 4ded 9cbd c4c0 363d
00000310: 8ad3 a9bd 324a 8cbd a3ae ba3d e8b3 22bc
00000320: 0661 bcbd d064 7cbb d399 eb3c 41d6 68bd
00000330: 51fd ec3c 2458 19bc ac5e c2bb 2cf0 cfbc
00000340: a2f2 d13c 379e eabd 3787 5e3c eb8f 683d
00000350: b564 24bd aa9f 053e 5bd8 073e 4652 03bd
00000360: 07dc 86bc ad7a a63a 4ffd 19bd 281a 09bd
00000370: bd86 98bc 15e8 78bc b636 1abd af71 02bc
00000380: 0e44 d5bd c099 b3bd 013a 76bd 6de3 d7bd
00000390: 9060 f73c e7a7 473c 3764 45bd 5bc1 7e3d
000003a0: 9eaf 0c3c 95e6 933c 60d6 9c3c b3e3 3abd
000003b0: f2e7 6d3d 8608 7dbd 402d d2bc 7d7a b13d
000003c0: 6b61 9f3d 853f 5dbd 7031 febd e6c6 c93b
000003d0: 3011 743c c361 ca3b b61c 95bd 4ae4 d2bb
000003e0: 620e 413d 78c8 ac3d 46ea 90bc a6b8 54bd
000003f0: 14ef 97bd 1e14 0abd dcf4 383d ae97 7a3d
-0.028748617 -0.020240381 -0.14008783 -0.008674873 0.007845378 -0.12862259 0.012148656 0.00938618
0.07594544 -0.052525632 -0.03873221 0.1477666 -0.06036448 -0.08059578 -0.059099484 0.050842326
-0.040416576 -0.13101628 -0.012054756 0.040502716 -0.0091767125 0.04163434 -0.01910457 -0.035338663
0.008567568 -0.014436498 -0.025014734 -0.03283642 -0.06920655 0.020748146 0.02055157 0.01251558
-0.06428111 0.031990804 -0.035809133 0.009887962 -0.029390851 -0.020591104 -0.12580866 -0.06453907
-0.15028508 -0.044516865 -0.14670837 -0.09019596 0.042495783 -0.052504923 0.05580715 -0.0015649046
-0.11322321 -0.028349254 -0.018715478 0.0145203555 -0.032860138 -0.021053167 0.007388356 -0.09975387
-0.048939 0.00553358 0.07331118 -0.0036378917 0.035936914 -0.095053084 -0.13113454 0.022113746
0.0024249426 -0.07511483 -0.050468154 -0.031370826 0.022740051 0.06776325 -0.017498545 -0.0431989
-0.044657096 0.05507761 -0.03366006 0.006349002 -0.051887903 -0.02097615 0.027830549 0.033724915
-0.047251545 -0.007824864 -0.032621544 -0.0062800697 0.057745118 -0.016710108 0.0126797585 0.08485581
0.025627464 -0.036318123 0.019406037 -0.060776655 -0.037328217 -0.037950296 0.022667687 0.047258675
0.023929697 -0.022966562 -0.07105698 0.0038841676 0.04461841 0.09789179 0.056130104 -0.016635314
-0.05943342 -0.01571236 -0.0370622 -0.044340275 0.003233097 0.014400049 0.06932954 -0.062395327
-0.05936214 0.047712244 -0.111258745 -0.060971335 -0.031539194 -0.018822595 0.013721716 -0.03210073
-0.025232961 -0.0088544525 0.022414822 0.01618668 0.032447647 0.016255166 -0.08405379 0.003936953
0.0152935 0.109498546 0.013785078 -0.12424057 0.11434654 0.07322492 0.0376804 0.00067292526
-0.0095124245 -0.032851692 0.025722336 -0.01893199 0.015586805 0.00141396 -0.00015852228 0.013944138
-0.011751789 0.057879154 0.049139183 -0.033590686 -0.06773609 0.044038907 -0.025863687 -0.036352813
-0.03711709 0.0071024913 0.012807786 -0.023391793 -0.1671213 -0.031426933 0.03475957 -0.0039727306
-0.015800754 -0.0640254 0.012612065 0.04890162 0.10192054 0.09467996 0.019333547 0.0022815573
0.0539435 0.019794617 -0.0031584958 -0.037496563 0.01060782 -0.024755418 -0.018369025 0.02183215
-0.023634672 0.023415629 -0.031094914 -0.011467572 -0.012347949 -0.080159046 0.12358829 0.033521283
-0.018288419 -0.087285236 0.041299295 -0.033378366 -0.12908132 -0.04610121 0.037215378 0.103686504
-0.011396442 -0.00867764 -0.07662449 0.04461743 -0.08292301 -0.06850089 0.091153406 -0.009930588
-0.09198193 -0.0038512237 0.028759873 -0.056844953 0.028929384 -0.009359393 -0.005931696 -0.025383078
0.025628392 -0.11455958 0.013582042 0.056777876 -0.040135104 0.13049188 0.13266127 -0.032060884
-0.01646234 0.0012701355 -0.03759509 -0.03347221 -0.018618936 -0.015192051 -0.037649833 -0.007961675
-0.10413371 -0.0876956 -0.06011391 -0.10541425 0.030197412 0.012186027 -0.048191275 0.062196117
0.008586792 0.018054286 0.01914519 -0.045627307 0.05808253 -0.061775707 -0.025656343 0.08665941
0.07782253 -0.054015655 -0.12411773 0.0061577437 0.014896676 0.006176205 -0.07280867 -0.0064359056
0.047132857 0.08436674 -0.017689835 -0.051933907 -0.074186474 -0.03371059 0.04515539 0.06117981

conv3.bias f4 [128]
00000000: 1be3 c5bc 9ad2 883c af52 cebc 79a4 8abc
00000010: 394c 80bd f1f9 853c 7f42 ae3c a072 5fbb
00000020: 22fa 33ba 9362 cdbc aedf 123c bbf2 2ebd
00000030: 1a4b 38bd 5dd6 f1bb 3b64 b13c e0dc b9bc
00000040: e4d4 64bc 7317 2cbd a478 c4bd e079 3e3c
00000050: 6c20 413c b8bf 49bc 94d0 ecbb 63a4 e2bb
00000060: f686 45bd f934 fabc 93a0 86bd 969f 2bbd
00000070: 6ccf 153b 56d7 0eba 76bd 49bd bfd9 fb3c
00000080: cb68 693c b42d 86bc 7ecd 46bc 6e4e debc
00000090: c422 afbc 7d3f 973c f9e0 3dbd 173d 7abd
000000a0: 948e 96bc 0bf0 fc3c 3212 b83c f45a c6bb
000000b0: bb0b 793c e068 2ebd e8a4 c6bc f50f e93c
000000c0: 134d 02bd 8356 75bd 40c0 5ebd 11e5 64bb
000000d0: 1046 07bd dac0 893c 9486 32bd 952a 22bd
000000e0: 220f 7abc d62f eebb bb86 04bd b718 21bd
000000f0: a84b 82bc 5303 24bd ea06 a2ba 65e0 f33a
00000100: 3535 2ebd a6bb b8bc f72e aabc 1877 66bc
00000110: f463 86bc a0c4 57bb b129 1c3d aabe aebc
00000120: f445 f1bb 744b d6bc f432 1ebd 008b d6ba
00000130: f20e eebc d4cd 7dbb ca8f 3ebd 4db6 71bd
00000140: 52ac e63b a991 f73c 2952 31bd 5ca9 15bc
00000150: 2a4b f83b d0bd f63c bf3c 7e3c 2038 81bb
00000160: 5664 24bd 52d8 27bb 05ce 8abb f3e1 463b
00000170: 2979 713c e7fc 17bd b8b1 23b8 5050 44bc
00000180: 4ad5 04bd c341 7a3c f1d7 2cba 8c8e 5e3b
00000190: bc76 2abd 531b b83c 9d2b 40bd 4a18 b93c
000001a0: c06f 903a 79f8 87bc e507 8cbc f29a 423c
000001b0: c79a 05bd ac92 66bd 5441 3fbd 3557 3cbc
000001c0: 0d6c b6bc 7390 34bc 8133 3abc 2910 3cbd
000001d0: e190 f9bb 74ad debc a6a8 24bc 6b34 a3bd
000001e0: c0b4 b73c a816 3e3c f45d 0ebd bc44 e13a
000001f0: dc8b 61ba cc3b 08bc 4ceb b0bc 37e6 edbc
-0.024156144 0.016701985 -0.025185911 -0.01692413 -0.06264538 0.016354533 0.021271942 -0.0034095421
-0.0006865581 -0.025071418 0.008964462 -0.042711955 -0.044993497 -0.0073802904 0.021654239 -0.02268833
-0.013966773 -0.04201455 -0.09593323 0.011625737 0.011787515 -0.012313776 -0.007227013 -0.006916569
-0.048224412 -0.030542837 -0.06573596 -0.04190024 0.0022859229 -0.00054489577 -0.04925295 0.030743478
0.014246176 -0.016379215 -0.012133954 -0.027137008 -0.021378882 0.01846289 -0.04635713 -0.061093416
-0.018378533 0.03087618 0.022469614 -0.006053323 0.015200551 -0.042580485 -0.024248555 0.028449992
-0.031811785 -0.059896957 -0.054382563 -0.0034926573 -0.0330258 0.016815592 -0.043585375 -0.03959139
-0.015262397 -0.007268886 -0.03235505 -0.03933021 -0.015905216 -0.040042233 -0.001236168 0.0018606303
-0.04253121 -0.022550415 -0.020774348 -0.01406648 -0.016405083 -0.0032923594 0.038125698 -0.02133115
-0.0073630754 -0.026159026 -0.03862281 -0.001636833 -0.02905986 -0.003872742 -0.046523847 -0.059011746
0.007039585 0.030220823 -0.043291245 -0.009134617 0.0075773196 0.030119807 0.015517413 -0.003943458
-0.04013475 -0.0025611115 -0.004235985 0.0030347079 0.0147383595 -0.03710642 -3.9027742e-05 -0.011982039
-0.03242997 0.015274468 -0.0006593457 0.0033959476 -0.04161714 0.022473967 -0.046916593 0.02259459
0.0011019632 -0.016597973 -0.017093608 0.011877762 -0.03261831 -0.05629222 -0.04669316 -0.011495401
-0.02226832 -0.0110207675 -0.011364819 -0.04591385 -0.007616148 -0.027182318 -0.010049975 -0.07968982
0.022425056 0.011602081 -0.03475757 0.0017186622 -0.00086039095 -0.008315038 -0.021596573 -0.029040439

fc1.weight f4 [10, 128]
00000000: 19c8 e0bd e7a8 1dbe 66fe d33d b980 d3bd
00000010: fdf4 aebd 12eb 5a3d 0022 233d 2693 423d
00000020: 2160 48bd 14cd 553d 268b 86bd 1194 133d
00000030: 22f5 963d 91b4 8c3d 1044 40be 0ef6 2f3d
00000040: 42b3 bebb 8ade cebc 6edd 8b3d 713c 7ebd
00000050: e48a c4bd f8b3 cdbd 63e5 693b 0709 663d
00000060: 5a3b 603d 1dfa 89bc f71c 1c3d 30a2 9cbd
00000070: 5d2d 3fbc 1f9e 703d 5def 1abd 65e5 acbd
00000080: d76b 8dbd 1da2 babd a0f9 f8bc f337 823c
00000090: 0539 863d 779e 923c aee1 a2bd e009 d93d
000000a0: 7000 7ebd 8973 cd3c 1b94 88bd 0c03 953d
000000b0: 7fc4 b5ba 661e 52bc e9d7 2ebd 54ad d93d
000000c0: d917 c8bd 87e3 94bd 681b e8bc 340b 393d
000000d0: 676c 8bbd 5252 2abd 491b 0bbd 9322 0dbe
000000e0: 215b 9bbc 5b16 67bb ca58 62bd 891f af3d
000000f0: a8b1 23be 8976 c13d 4df1 8dbc 671f 9b3c
00000100: ddab 5bba 12c0 443d 9033 21bc d506 523d
00000110: 0d7e 8f3d 5f7f a33d 0726 863d 9fab 8b3d
00000120: 3642 573d 5405 033d ce90 bebc a693 5dbd
00000130: e9d4 a43c e1e4 95bd 1e3c 9d3d cc4f 47be
00000140: 8f61 25bd 4480 e13d aa90 0bbe 6ba4 08bd
00000150: 7b82 56bc 6cea 0fbd 2f2b 72bd d119 033d
00000160: 5ee7 94bd 6adb 63bd c516 bd3d 2665 103d
00000170: 4235 8abc 3d52 aa3d 8b43 973d 3982 8b3b
00000180: 6366 b7bd 2812 343d 5312 9ebc a023 10be
00000190: 6ffa b33d 0cc2 d23b 5dd0 723d 7f95 31be
000001a0: 5933 a13d 1aad 93bd 2bed 923d bbb3 69be
000001b0: fc9c 25bd 2b7a 68bd db51 ce3c 6ad7 853c
000001c0: 8b15 8bbd a815 bf3d 238f 1dbc 5f77 023d
000001d0: 907c 28be 2ca0 89bd 2c08 4dbd 8051 a5bd
000001e0: 5762 363d 800d e9bd 0a1b b83d e53e 003c
000001f0: 71f2 d53c 5f3a 61be 4e75 25bc 710c f03c
00000200: 04ae 4ebd 59ab ca3d ca7b 1dbe d27f 8b3d
00000210: d19e a9bc 054f eebb 68cf 31bd 4280 b83c
00000220: 40dd 863d e67d b4bc d42c c73c 92b2 163b
00000230: ca6d ccbd 2396 433c 6403 54be 6654 f6bd
00000240: 09d2 83bd 46d9 95bd dba3 bc3b 442f 513d
00000250: dbd1 b6bc 9ece da3d 9be4 873d 09d6 a63d
00000260: 5937 6fbe c8e3 383d aeda bcbc 9718 e1bd
00000270: f322 9fbc 1ccd c4bd b35d 3a3c c0d7 b5bc
00000280: d056 fabd ec72 c13c 7823 a2bd d4a0 533c
00000290: c398 88be 4e70 a13d 7a3f 2fbd 3852 debd
000002a0: 5d9a 573d a241 0ebe be50 10be ae90 67be
000002b0: 5b6b ce3d 9510 3dbe 2ffb b33d 8dbf f83d
000002c0: 64ec 61bd 08fa 4abd 65d4 323e cc0f 6d3d
000002d0: bdf5 1d3d 5ee3 39bd 232e c13d ac7d ad3d
000002e0: a007 2d3c 7e7c 79bd a688 15bc 1223 cebd
000002f0: 82a4 8cbd 1b51 cb3d 3424 acbd a3b0 93bc
00000300: 23cc 9f3d fdfc 413d e382 86bd 9596 7ebc
00000310: b6ef 12be ba41 c23d 184f b03d 3afb 1b3d
00000320: c58b d4bb eaf9 53bd 2505 90bd 6dc5 77be
00000330: 22b6 2ebc f23d 443d 63c1 91bd 510e cbbd
00000340: eccc 98bb f879 183e ae6b 2dbe 84b4 cdbd
00000350: b44a 1a3d d1de 16bd a93c 633d 115e abbd
00000360: 85ed 453d 39cd 0fbd 63f3 fcbd a4a5 62bd
00000370: 5957 bf3d a49b 55bd b8c3 653d c65d 4439
00000380: e50e 05be aa85 0dbd f231 acbd 6694 34be
00000390: 0e06 ba3d af32 4bbd c712 d6bd 6af6 8b3d
000003a0: da23 143e 6377 bbbc 012f 54be b004 32bd
000003b0: 0908 57be c3e9 b23c 8371 1e3d 3e3e 0e3c
000003c0: a7ba abbd 90c3 50be d483 6abd a87b b83c
000003d0: 13b1 b33d dfd9 853d e865 55bc 3489 4ebe
000003e0: efea 053e 3437 32bd 7741 39be e9b2 bcbc
000003f0: 1fee f63d 77df 12bc 296f 173d 3e50 0f3d
-0.109756656 -0.15396462 0.10351257 -0.10327286 -0.085428216 0.053446837 0.039827347 0.047503613
-0.0489198 0.05219753 -0.06569509 0.03602988 0.07370974 0.06870378 -0.18775964 0.042959265
-0.005819709 -0.0252526 0.06829344 -0.06206936 -0.09596804 -0.10044092 0.0035689704 0.056160953
0.054744102 -0.016842896 0.03811356 -0.07648122 -0.01166853 0.058744546 -0.03782593 -0.08442191
-0.069053344 -0.09112952 -0.030392468 0.01589582 0.06553844 0.017897828 -0.07953201 0.10597587
-0.062012136 0.025079506 -0.06668874 0.07275972 -0.0013867765 -0.01282463 -0.042686377 0.10628763
-0.097701736 -0.0726996 -0.02833338 0.0451767 -0.068077855 -0.041582413 -0.033961568 -0.1378272
-0.018964352 -0.0035261128 -0.055260457 0.08550937 -0.15985739 0.09446437 -0.017326975 0.018935872
-0.00083797966 0.048034735 -0.009838954 0.051276047 0.07006464 0.079832785 0.06550222 0.068198435
0.052553378 0.031987503 -0.023262408 -0.054095887 0.020121055 -0.07319046 0.07677482 -0.19464034
-0.040376242 0.11010793 -0.13629404 -0.033359926 -0.013092632 -0.03513567 -0.059123214 0.032007042
-0.07270692 -0.05562917 0.092328586 0.035252713 -0.016871098 0.08316467 0.0738593 0.004257467
-0.089550756 0.043962628 -0.019295847 -0.1407609 0.08788001 0.0064318236 0.059280742 -0.17342184
0.07871122 -0.07210751 0.071741425 -0.22822468 -0.040432915 -0.056757133 0.025185516 0.016338069
-0.06791218 0.093303025 -0.009616646 0.031852122 -0.16453767 -0.067200035 -0.05005662 -0.080721855
0.044527378 -0.11379528 0.08989532 0.007827495 0.026116582 -0.21994923 -0.010098768 0.029302808
-0.050458923 0.09895963 -0.15379253 0.06811489 -0.020705612 -0.0072726035 -0.04341069 0.022522096
0.06585169 -0.02203269 0.024313368 0.002299462 -0.09981878 0.011937651 -0.20704418 -0.120278165
-0.064365454 -0.07316832 0.005756838 0.051070467 -0.022316864 0.1068394 0.066354 0.08146293
-0.23360957 0.045139104 -0.023053493 -0.10991018 -0.019425845 -0.09609434 0.011374879 -0.022197604
-0.122235894 0.02361437 -0.079169214 0.012916762 -0.26679048 0.078827485 -0.042785145 -0.10855526
0.052637447 -0.13892224 -0.140933 -0.22613785 0.1007907 -0.18463357 0.08788144 0.121459104
-0.05515708 -0.049554855 0.17463835 0.057876393 0.038564432 -0.04538285 0.09432628 0.08471236
0.0105609 -0.06090974 -0.009126818 -0.10065283 -0.06867315 0.09927579 -0.08405343 -0.018028563
0.07802608 0.04736041 -0.065679334 -0.015538831 -0.14349255 0.094851926 0.08608836 0.038081385
-0.0064863884 -0.05175201 -0.07032231 -0.24196406 -0.010663541 0.04791064 -0.07116964 -0.0991484
-0.0046631005 0.14890277 -0.16935608 -0.10044196 0.0376689 -0.036833588 0.055477772 -0.08367551
0.04832222 -0.035107825 -0.1235111 -0.05533375 0.09342832 -0.052150384 0.056094855 0.0001872695
-0.12993963 -0.0345513 -0.08407964 -0.17634735 0.09083186 -0.049608883 -0.104528 0.06834109
0.14466801 -0.022884076 -0.20721056 -0.0434615 -0.20999159 0.021839982 0.038682472 0.008681832
-0.083852105 -0.20387101 -0.057254627 0.022519901 0.087740086 0.06535696 -0.013024785 -0.20169526
0.13077901 -0.043509677 -0.18091379 -0.02303453 0.12057137 -0.008964411 0.036971245 0.034988634

fc1.bias f4 [10]
00000000: 348a 93bd a5ba bfbd 097a e2bd 7ba9 db3d
00000010: a6f5 993d 8a0e e8bb d012 bd3d f13b 8a3d
00000020: d07d 453d e06d d0bd
-0.072040945 -0.093617715 -0.110584326 0.10725685 0.07517557 -0.0070818113 0.09232104 0.06749714
0.048215687 -0.10177207
