models/model.pth (torch, 378536 bytes, 8 tensors)

conv1.weight f4 [32, 1, 3, 3]
00000000: 5751 d93d 19a8 973e 707e bcbe a87a 34bd
00000010: b279 bf3e daf2 80be 3ac5 79be 17d6 1abe
00000020: 046c ae3e b80f 29be c745 35be 3793 a43e
00000030: 617b 59bd ed72 84be 4418 963e af47 883e
00000040: 70c7 e13b 9580 8c3e 056e 91be 2ca0 b1be
00000050: 0bcb cfbe c71b b43e fbed a03d 4c58 f43d
00000060: 5148 d3bb 56d7 e43d 6ee4 953e 8a15 a13e
00000070: e8ef bf3e 4890 f5bd 0d69 8f3d 818c 41bd
00000080: a7b4 b4be 705b cc3b 67d9 023e 4e3c 07bf
00000090: 6c13 9e3e 7b30 ce3d a232 eebd 7d06 8a3d
000000a0: db52 86be b572 2ebe 8556 c43d a2fd 813e
000000b0: 22fb 683e c044 343d ea88 88be b242 8fbe
000000c0: d96c f93d 8fc7 18be 2fa2 4ebe 7783 c23e
000000d0: 1bdd c63d d9f8 9f3e 11a6 a5be a699 b8bd
000000e0: 5794 2bbe 728f 41be 3b47 983d 765b be3e
000000f0: 2498 d3bc 12c8 493e b6ea be3e 9898 b2be
00000100: d935 a7be 9fdd a9be 4833 8bbe daa0 3abe
00000110: 4d54 90be 6e97 21bd 5fae 91bb a5de e0be
00000120: 6afe 67be 9379 c5be a073 e6be 241d 58be
00000130: 2aed 34be 9ab1 963e 4c24 e53e 6d61 663e
00000140: 344f b93e 4a7d ecbd 9aee df3d edc8 933e
00000150: 8439 113d c5a1 50be da6b 993e f841 c2be
00000160: 9cdc 973e e82a 5c3e e4e2 8c3e 50af d63e
00000170: c2d3 df3e d843 86bd 9090 65be f9b0 eebd
00000180: 55c6 c2be d894 02be fd08 cbbe f759 ac3d
00000190: 690a 173e a8b1 3a3e cb0e 903e c268 9e3e
000001a0: 9c32 df3d 819c 3dbe 7120 183e 400f 093e
000001b0: eecd 983e 1074 6cbd c7c9 5ebe 92bd ee3d
000001c0: 2d2d 1ebd c4b3 d4be 7cc4 653e 4609 963e
000001d0: 09d8 dcbd 3e9d b83c b891 32be 1cf8 80be
000001e0: 80b3 01bb bc1a ba3d 15e4 a9be 27fc 743e
000001f0: 786c afbd 18f8 fd3e 32fa 8cbe 47b7 d1be
00000200: 5f26 9fbe a28e 8fbe 6250 653e 3eae 393e
00000210: dfa0 64bc ed37 413c 0f1c 573d 5735 8abe
00000220: ab1c bcbe 846f b5bc 67f9 e83b 41eb 7cbe
00000230: bf39 a63e ea21 ce3d 6ed5 b63e ab08 453e
00000240: ffb5 f93d 2dcf e73e db0b d43d 2604 883d
00000250: 8099 353e 5d70 3fbd 13bc 1cbe 9491 edbe
00000260: 1900 dcbe a9d7 803e f7ab e5bd 7e32 063e
00000270: 03d6 17be 2aca ba3e 74d3 28be 7653 d03d
00000280: a584 ac3e d0a2 a13e 0ded c33e e4dd 753b
00000290: 29b2 e5be 9590 423e 4d54 8dbe a169 1ebe
000002a0: 02a1 cc3e c551 41be abf0 cbbe c1fb 673c
000002b0: 62e7 863d 3c3b 68be 2509 e03e cb31 7dbe
000002c0: 7bd0 2bbe 0477 3c3c ed51 1c3e 9541 febb
000002d0: 42fc 34be ecc9 c1be bc33 cebe e607 b2be
000002e0: cdcd 82be d481 59be a6df 82be 17cb 153e
000002f0: c7f4 023e dfdf 21be 0676 84be 85b2 4f3e
00000300: 1185 c33d 094a 35be 89bf e53e 0b96 acbe
00000310: f18e 7dbe 242f aa3e e709 01be 3e79 9ebe
00000320: fa13 1dbe 53bd d3be 07e6 7fbe bfd7 5a3e
00000330: e9c5 b3be 4e62 953e 610f bf3e 07da 893c
00000340: 6181 f9be 007f 76be 7ef7 78be 5b28 523e
00000350: 97ae 003e 06a9 d23e db4d 3c3e dd9a 5bbe
00000360: 9904 18be 9503 69be 53a4 303e 93bd 603e
00000370: d7b4 babe dccc 8dbe 0c20 d73e 5216 933e
00000380: 8e49 4abd 95bc 613e d74b 9dbe 4c0d 8bbe
00000390: 0938 893e f106 c03e 8cf0 a5be 005a 883d
000003a0: b048 e53d a9c4 bc3e 2a63 d0be 4e7c d5be
000003b0: 684b 0bbe b521 383e d88a 9d3d 8db0 a6be
000003c0: dec3 09bc 559d 673d c691 e1be fc99 c0be
000003d0: eb71 78be 5b3f 77be f175 a0be ed97 acbd
000003e0: 0cd6 60be c45a 003e 0bd4 ecbe 20c6 eabd
000003f0: 6bdd 2bbd 0f7a 793e 5ed5 0a3d 717c c3be
0.106112175 0.29620436 -0.36815214 -0.044062287 0.37397534 -0.2518528 -0.24391642 -0.15120731
0.34066784 -0.16509902 -0.17702399 0.32143566 -0.05309618 -0.2586893 0.29315388 0.2661719
0.00689023 0.2744185 -0.2840425 -0.34692514 -0.40584597 0.35177442 0.07857891 0.11930904
-0.00644783 0.111738846 0.2927584 0.31461746 0.3748772 -0.1199041 0.07002459 -0.047253136
-0.35294077 0.006236486 0.12778245 -0.5282639 0.30874193 0.10067841 -0.11630751 0.06739519
-0.2623509 -0.17035945 0.09586815 0.2538882 0.2275205 0.044010878 -0.26666957 -0.27980572
0.12178964 -0.14919876 -0.20179056 0.37990925 0.09710141 0.31244543 -0.3235326 -0.09013681
-0.16755806 -0.18902376 0.07435461 0.37179154 -0.025829382 0.19705227 0.37288445 -0.34882045
-0.3265827 -0.33176896 -0.27187562 -0.18225423 -0.28189316 -0.039451055 -0.0044458355 -0.43919864
-0.22655645 -0.38569316 -0.4501009 -0.21104866 -0.17668596 0.29432374 0.44754255 0.22498102
0.3619324 -0.115473345 0.109341815 0.28864232 0.03545524 -0.2037421 0.29965097 -0.37940955
0.296605 0.21500742 0.27516854 0.41930628 0.43716246 -0.06555909 -0.22418427 -0.116548486
-0.3804194 -0.12752092 -0.39655295 0.08415597 0.14750065 0.18231833 0.28136286 0.309393
0.10898325 -0.18516733 0.14856125 0.13384724 0.29844612 -0.057727873 -0.2175666 0.116572514
-0.0386173 -0.415434 0.22438234 0.2930395 -0.10783393 0.022535916 -0.174384 -0.25189292
-0.0019790828 0.090871304 -0.33181825 0.23924313 -0.08565611 0.49603343 -0.27534634 -0.40960142
-0.31083962 -0.28038508 0.22393945 0.18132874 -0.01395437 0.011793119 0.052516993 -0.2699382
-0.36740622 -0.022147901 0.007109809 -0.24699117 0.32465932 0.10065062 0.3570971 0.19241588
0.12192916 0.4527525 0.10353824 0.06641416 0.17734337 -0.046738017 -0.1530612 -0.4640013
-0.42968825 0.25164536 -0.1121444 0.13105199 -0.14827733 0.36482364 -0.16486913 0.10172169
0.3369495 0.3156953 0.38266793 0.003751629 -0.44862488 0.19000466 -0.2760338 -0.15469982
0.3996659 -0.18878849 -0.39832053 0.014159144 0.065871015 -0.22678846 0.43756977 -0.24726026
-0.16778748 0.011502985 0.15265627 -0.007759283 -0.17674354 -0.37849367 -0.40273845 -0.3477165
-0.2554764 -0.21240932 -0.25561255 0.14628254 0.12788688 -0.15808056 -0.25871295 0.20282944
0.09546865 -0.17704023 0.44872692 -0.33708224 -0.24761559 0.3323909 -0.12601434 -0.30951875
-0.15339652 -0.4135538 -0.24990092 0.21371363 -0.3511193 0.29176563 0.3731642 0.016827596
-0.4873152 -0.24071884 -0.24313161 0.20523207 0.125666 0.4114458 0.18389075 -0.21445794
-0.14845504 -0.22755273 0.17250185 0.21947317 -0.36466095 -0.27695358 0.42016637 0.28727967
-0.049386553 0.22044595 -0.30721924 -0.27158582 0.26800564 0.37505296 -0.32410085 0.06657791
0.11195505 0.3686879 -0.40700656 -0.416964 -0.13602984 0.17981608 0.07692498 -0.32556573
-0.008408515 0.056546528 -0.4405653 -0.3761748 -0.24262206 -0.24145262 -0.31339982 -0.08427415
-0.21956652 0.12534624 -0.46255526 -0.114635706 -0.041959208 0.24362968 0.03389489 -0.3818088

conv1.bias f4 [32]
00000000: 2b2b 813d c45a 89be 2c59 233e 5c55 17be
00000010: a3cc 23be 0873 a6bd d4f6 f3bd 904d 36be
00000020: 7a32 373d bbbe a8be 96a4 5bbd 52c5 8abe
00000030: 76f4 a23d 7fff 1cbe 9ebc 283e a72c 60be
00000040: ef50 fabd 3c7b 90be 2f84 0dbe 23ee 16be
00000050: 4e0d 6e3e 89a3 03bd 05a3 71be a41e b03d
00000060: 8fcb 593d fff3 25be 97d3 45bc aec8 653d
00000070: f636 a1bd e689 3f3e 0370 b9bd dc5a 173e
0.06307062 -0.2682706 0.15951985 -0.14778656 -0.15996031 -0.08127409 -0.11912313 -0.17803025
0.044725873 -0.32958016 -0.05362376 -0.27103668 0.079567835 -0.15331839 0.16478202 -0.21892034
-0.12222468 -0.2821902 -0.13819955 -0.1473928 0.23247263 -0.03213838 -0.23597343 0.08599594
0.053172644 -0.16206358 -0.012074373 0.056099586 -0.07871811 0.18704948 -0.09054568 0.14780754

conv2.weight f4 [64, 32, 3, 3]
00000000: 2a01 fa3c b46e aabd 3927 48bd bff3 19bd
00000010: e28b d63c e717 55bc 2a29 37ba 2360 a2bc
00000020: dfd6 dbbc 49fe 2aba 1975 98bd 4dd1 21bd
00000030: fd7b ef3c df86 f7bc 1669 51bc 6b86 663c
00000040: c56b 13bd e727 f8bc 90aa a8bd 528b 34bd
00000050: aad9 4abd c17b b7bc 0d6c 733b cdda 263c
00000060: b8d3 04bd 6f86 9cbd 7c2b ddbc 123c a13d
00000070: 8ed7 a3bd 1880 dbbc 30ec d2bc 6ad7 26ba
00000080: 7c94 eb3b 9b01 a3bb 907f 8cbc d9c6 273c
00000090: 36d4 873d 3577 80bd 037b b2ba 8db9 feba
000000a0: 17a8 9dbd b32e 09bd 60b8 983b 4572 8fbd
000000b0: 6035 87bc 2b1f 0cbd 0de5 5fbd 911d 053c
000000c0: bbcf 453c 857e 6ebb e5d3 91bc b012 6d3c
000000d0: ce7c 9abd 85a5 87bd c044 cfbd 8ee2 043d
000000e0: 6bf3 afbc c970 96bd 3167 c9bb 914a 7abd
000000f0: 0f07 5cbd 5e57 aebc 28ad e63c de7f 95bc
00000100: 733b 0bbd 901a 58bc 2500 473c 8895 03bd
00000110: 7f47 8cbc 910f 06bc 9644 06bc 037f 58bd
00000120: f40c 123c 8cee afbd c85f 46bc 5c6d e03c
00000130: a8a0 f93c a7ff 6abd 4f7d 00bd 9d7f 97bd
00000140: 89a6 79bd ce69 04be b8d5 c8bb de7a 30bb
00000150: c3d8 bfbd 509f c33c 5f18 5a3c ae8a 16bd
00000160: 3aac 56bd b3dc e7bc 1af9 a8bb fc68 96bd
00000170: 8fc0 9dbc 846f 50bd 3871 09bd 1a9e 173d
00000180: 6437 1bbd 8ffe 8cbb 24d6 533d 4705 73bd
00000190: 8022 8fbc f78b 49bd 5999 a9bc 633d 13bd
000001a0: 2134 44bb 713c 1b3c 4275 a8bc 99c7 a4b9
000001b0: 8488 903c 5567 9ebd 7f24 e5bc 7601 663d
000001c0: 8e3b e9bc 0aad 32bc 940e 433d 7335 91bc
000001d0: 9543 153d 2a47 11bd a618 0f3c 1795 a5bc
000001e0: 51e4 4f3c df9d 45bb 1fab 8ebd de42 90bc
000001f0: 03b3 0cbd 54fc 91bb f816 a13c 89d6 debc
00000200: b0d6 04bc a741 cd3c 5fd7 223c 6ae7 89bd
00000210: 13f8 233b f7cf 0cbd 73b4 debc e198 86bd
00000220: f848 d9bc d7f7 76bd a684 c4bc 8291 243c
00000230: e37c 47bd 57d8 02bd 4899 4cbb 0f10 4abc
00000240: ddc0 a83d 0792 da3b 19ba 0bbc ae58 fbbc
00000250: 314d fcbc 0b32 b4bc 63a5 cdbc 534b cc3b
00000260: 4a53 9c3c 3133 47bc e97c 463d f273 a3ba
00000270: 2f5f e9bc 39b0 fcbc 3fbd 87bd ec18 05bd
00000280: bf79 6cbd ce82 fc3a aa1b a23d 4b1a 403c
00000290: f4a0 b63b e955 c23c b86a bcbd e058 fcbb
000002a0: a146 84bc 7738 62bd 104a 3d3d d6bd b33a
000002b0: 4f4a a8bd 5357 e13d 0c4f 883d 1f45 09bd
000002c0: f1b8 263b 0908 313d 14cd 103c ced4 2fbb
000002d0: 76ab 4abd 3113 f1bc 1c48 34bd 1077 9fbd
000002e0: 3d5d a53c b9da 93bc a971 29bd 73cf 4abd
000002f0: 45b8 3b3c 4fb3 56bd 2131 1a3d 135e 81bd
00000300: 7373 41bc 2efa 7ebd fb06 cbbd e57c 19bd
00000310: 8919 04bd b137 7a3c 83c3 0abd 3382 1e3c
00000320: 00a3 913c 7edd 923c d613 88bd 4de5 b5bd
00000330: 9de3 c8bd a6a3 403c 3872 1bbd 989d 81bd
00000340: 1dac afba 4d8f 3bbd c400 a7bb d74a b1bd
00000350: b8a4 80bd a6ec b1bd 2537 1a3c 8aac 87bc
00000360: e483 1a3d d6a0 77bd 0650 9a3a dc4e 43bd
00000370: 87d7 96bd 6ca8 423c 7646 a0bd ddcc 42bd
00000380: dc09 0ebc bc5b 7b3d 305f 1fbd f552 50bd
00000390: 7dc5 733b 2806 efbb 0f69 ecb8 5dcf 41bd
000003a0: d67c 7abd 9ce0 24bd 4576 4d3c 5fab 68bd
000003b0: 4d0e e03c 925f 1fbd 9b9d aabd 3851 66bd
000003c0: 1ac4 05bd d133 4dbd 32e5 163d 217a 89bc
000003d0: f361 3139 57fa 39bd a791 3d3b 9b6c a6ba
000003e0: ad3a 7bbb 7f5c 67bb efa0 d8bc 7b5a 0d3d
000003f0: 17e9 16bd 533a 3cbd 93fa 203d a8fa 2ebd
0.030518133 -0.08321896 -0.04886553 -0.03758597 0.026189748 -0.013006187 -0.000698703 -0.019821232
-0.026835857 -0.0006522877 -0.074442096 -0.039506245 0.029233927 -0.030215679 -0.012781402 0.014070134
-0.03599145 -0.030292464 -0.08235657 -0.04407818 -0.049523987 -0.022397878 0.003714326 0.010184002
-0.032428473 -0.07642829 -0.026998274 0.07872786 -0.08000098 -0.026794478 -0.025747389 -0.00063644967
0.0071893316 -0.0049745566 -0.01715067 0.01024028 0.06632273 -0.06272737 -0.0013616983 -0.001943396
-0.07698076 -0.0334918 0.004660651 -0.07004217 -0.016504943 -0.03420941 -0.0546618 0.008124725
0.012073453 -0.003639133 -0.017801234 0.0144697875 -0.07543336 -0.06623367 -0.10120535 0.032442622
-0.021478375 -0.07345731 -0.0061463346 -0.06110627 -0.05371767 -0.021281894 0.02815874 -0.018249448
-0.033992242 -0.013189927 0.012146031 -0.032125026 -0.017123936 -0.008182422 -0.008195063 -0.052855503
0.008914221 -0.08590421 -0.012107797 0.027395897 0.030472115 -0.057372715 -0.031369504 -0.07397387
-0.060949836 -0.12930986 -0.006128993 -0.0026928703 -0.09367516 0.023879677 0.013311475 -0.03675335
-0.05241034 -0.02830348 -0.0051566483 -0.07344243 -0.019256858 -0.0508876 -0.03355524 0.03701601
-0.03789462 -0.0043028067 0.051717892 -0.059331205 -0.017472506 -0.049205747 -0.020703005 -0.035947215
-0.0029938298 0.00947486 -0.020563725 -0.0003142923 0.01764322 -0.07734553 -0.027971504 0.056153737
-0.02847078 -0.010905514 0.047621325 -0.017725682 0.036441404 -0.035468258 0.008733904 -0.020212693
0.012688712 -0.0030153913 -0.069662325 -0.01761001 -0.034350406 -0.0044551287 0.019664273 -0.027201908
-0.008107826 0.02505572 0.009939044 -0.06733592 0.002501969 -0.03437802 -0.027185654 -0.06572128
-0.026524052 -0.060294952 -0.023989033 0.010044457 -0.048703086 -0.0319446 -0.0031219292 -0.01233293
0.08239911 0.00667024 -0.008528256 -0.030681934 -0.030798526 -0.021996519 -0.025103277 0.0062345653
0.019082684 -0.012158201 0.048458967 -0.0012470467 -0.02848777 -0.030845748 -0.06627893 -0.03249447
-0.057733294 0.0019265057 0.07915433 0.011725019 0.0055733863 0.023722606 -0.092000425 -0.0077010244
-0.01614696 -0.05522963 0.04621321 0.0013713192 -0.08217298 0.11002984 0.06655702 -0.033513185
0.0025439824 0.043220554 0.008837957 -0.0026829722 -0.049479924 -0.029428096 -0.04401408 -0.07786381
0.020186061 -0.018048631 -0.04136816 -0.049514245 0.0114575075 -0.052417096 0.03764451 -0.06316771
-0.01180731 -0.06225031 -0.09913441 -0.037472624 -0.032250915 0.015272067 -0.03387786 0.009674597
0.01777792 0.017927881 -0.066444084 -0.08881626 -0.09809039 0.011757767 -0.037950724 -0.06328887
-0.0013402734 -0.04579096 -0.005096527 -0.08656853 -0.062814176 -0.08687715 0.009412562 -0.016561765
0.037723437 -0.06045612 0.0011773116 -0.047682628 -0.07365327 0.011880975 -0.07825939 -0.047558654
-0.008669343 0.06136678 -0.038909137 -0.050860364 0.003719657 -0.007294435 -0.000112729256 -0.047316898
-0.06115421 -0.040253267 0.012540405 -0.056804057 0.02735057 -0.038909502 -0.08330842 -0.0562298
-0.03265772 -0.050098244 0.03683967 -0.016781868 0.00016916524 -0.04540476 0.0028925927 -0.0012697162
-0.0038334534 -0.0035302935 -0.026443927 0.034510117 -0.036843386 -0.04595406 0.039301466 -0.042719513

conv2.bias f4 [64]
00000000: 5ffd 06bd d0a1 c93c 9763 23bd 3b46 78bd
00000010: 883e 1a3d 18ad 55bc db00 eabc ba61 d039
00000020: 4bd3 92bd f338 e8bb 8465 bd3c a8df 603c
00000030: dfe7 57bc f476 05bd 3abb 82bd 2ed5 e5bc
00000040: f717 aabd 4519 98bc 7744 bbbc 17ec b4bc
00000050: d2a7 263d 4a98 b23c b7c0 96bd 371e 823b
00000060: a2b2 92bc de47 a1bd 9b16 b93c f6f8 9eba
00000070: eb3b d9bc 2b20 8fbd 7072 e03c c611 90bc
00000080: 42ea e6bc ccd5 81bd 5706 4ebd 22f9 18bd
00000090: 6722 8bbd f8d4 4abc ee7a 403d 3efc 97bd
000000a0: 9271 8bbd 17b1 04bc 4b22 30bd 5608 91bc
000000b0: ee6f 4dbd a99a 963b aaed 47bd d0a7 3abc
000000c0: b490 e6ba fb26 dbbc 05e8 c239 e02d 1dbd
000000d0: cf73 6ebd 14a8 72bc 263c 92bd 7f68 f03c
000000e0: 4fc0 f7bc 5c6c 42bc 3fcb a6bd 4f4a 2f3d
000000f0: 988c b9ba 73bd 1c3d fc38 94bd ed32 38bc
-0.032956477 0.024613291 -0.0398899 -0.060613852 0.03765729 -0.013041757 -0.028564861 0.00039745664
-0.07169207 -0.007086867 0.023119695 0.013725199 -0.013177841 -0.032584146 -0.06383367 -0.028055754
-0.08305352 -0.018566737 -0.022859795 -0.022085233 0.04068739 0.021801133 -0.07360976 0.003970887
-0.017907444 -0.07875036 0.022593787 -0.001212864 -0.026517829 -0.069885574 0.027398318 -0.0175866
-0.028187875 -0.06339607 -0.050299015 -0.037346967 -0.06793671 -0.012379877 0.046992235 -0.07421158
-0.06808771 -0.008098862 -0.043001454 -0.01770417 -0.050155573 0.0045960736 -0.04881064 -0.011392549
-0.0017590732 -0.026751986 0.00037175431 -0.038373828 -0.058215912 -0.014810581 -0.07140379 0.029346703
-0.030243067 -0.011866655 -0.08144235 0.042795476 -0.001415628 0.03826661 -0.072374314 -0.01124261

conv3.weight f4 [128, 64, 3, 3]
00000000: 0991 c939 9425 50bc 08ae 3fbd fe63 22bd
00000010: cbbe 263c 38e7 b2bc 958d 3b3d 4ff8 53bc
00000020: 3e09 353d 86c0 f93c 0a8b 3f3c 596c caba
00000030: fa2a 183d 4e62 893c 90ca 4bbc 931e 37bd
00000040: 4062 37bd 8650 a43b 0019 95bd 2650 1a3d
00000050: c111 a43d 27c8 afbd 46ee 6cbc 2750 2d3b
00000060: 8bbd 19bd 9f22 823d 6c99 a3bd 8bae c13c
00000070: 532a a3bc e60c b2bc 2063 2ebc 7e3a 1dbd
00000080: 8a37 f33c 2e3f e2bc 5ee7 b33c e02d e2bc
00000090: 67db b4bc 7dc4 c1bc 6e0d b7bc 9eea 4c3d
000000a0: 2c30 ddbb b1d3 3abd fb84 6d3c e823 a63d
000000b0: 722c 8d3d 3b79 52bd 2a13 6e3a 1f56 8b3d
000000c0: 8406 833d 2f27 94bc 21b0 92bc b854 a73c
000000d0: 35a0 1e3c 3ca1 2bbc e9a0 8f3c a368 c8bc
000000e0: dd0a 17bc 0c81 71bd af91 d63c 0794 9abc
000000f0: a451 adbc 9477 cabb fae3 11bb 5517 073d
00000100: f6f3 b9bc bae0 d7bd 8ff5 293c 86d7 493d
00000110: 46c5 083d e7d9 1bbd ec80 4dbc 57d1 f83c
00000120: 95d2 50bb c866 f5bc 3967 afbd 202f 26bd
00000130: c649 89bd 062c 34bd 1a01 0ebc 5e69 6cbb
00000140: d542 42bd b689 d7bb a4f6 a03d 3df5 c3bb
00000150: e580 dfba d81b cd3c dd0d 59bd 83eb 22bd
00000160: a08c 32bc 0ab7 fabd fd66 8abd a15b 80bd
00000170: f76f 59bd cc9f f6bb a92f c0bc dc71 a0bc
00000180: b857 553d 979b 5b3d 7e80 d0bd 9ab4 96bd
00000190: d93d 0bbe 856c fc3c 9dc3 74bc e1aa 25bc
000001a0: 7216 9e3d f055 83bd 2be2 06bc d692 bebc
000001b0: ce9f 8e3d fd73 08bd aa75 12bc c5b5 e23c
000001c0: 0493 07bd c6b1 f23c ab3c afbb d4d0 343d
000001d0: 397c 593c 6587 c43d 78f0 563c bada a7bd
000001e0: 02fb 053d 2f67 65bc 2c1d c5bd ac4c e0bd
000001f0: 64c9 963b 0527 da3c 4871 793c ecad 0f3c
00000200: a6b6 22bd 191c 37bc 6914 34bc 44dd d3bc
00000210: ae78 92bb bc8b 93bd 411f 963c d1d8 99bd
00000220: 9cb6 2e3d 01f9 62bd 2c2b 2836 f02c bb3c
00000230: b801 19bd 9de8 1e3d 6612 c73c 4ff7 0cbd
00000240: 32be ddbc 7734 8e3d c5ab 9c3d 5b99 9a3c
00000250: f812 883d b8d5 e03c b0d6 30bd 60fd 0c3d
00000260: f0b9 91bd 3cf6 323d 59de 2a3d 4dce b33d
00000270: 6b4c a63d b845 ed3b 48ab 51bd a829 2d3d
00000280: ea97 edb8 8cf9 c6bd a1dc d9bc ac16 303c
00000290: dd3a b93c a387 2abd 6770 8abc 221c cbbd
000002a0: 8653 4ebd 3eee 60bd 03f3 b2bd 7559 2ebc
000002b0: 76bc 263d 0983 62bd f8d0 64bd 889c 91bc
000002c0: dc62 b83c 5bfa dbbc 49ed 463d 3fe6 9dbc
000002d0: 59ee e03d 0bab 423d 0a80 6fbd 2da4 8d3d
000002e0: 980d 5bbc 16b9 8ebd fc4e 66bc 0bd1 44bd
000002f0: ef1c 7c3c dd5b a8bd be06 3abd 2c6d aa3d
00000300: b648 48bd e67f da3c fd24 febd 10ac e1bd
00000310: ac71 31bd 138d 06be 6504 0d3d 2540 ec3c
00000320: 3b1f 9cbc f9e9 a0bd a87e 6d3d 485a 46bc
00000330: 804a 0bbe 0897 103c 123e 9339 8a1d 123c
00000340: 42cb a03b 3e06 613d 5596 d33c e872 d1b9
00000350: a478 1c3d 84fa 83bc c5ff d439 5587 60bd
00000360: 7e73 ad3d c351 913d e111 4cbd 7187 c83c
00000370: 2efe 14bd c2e5 bfbc 4038 87bc 22e3 7abc
00000380: 656b 813d 6faf 18bd e029 ad3a 1da5 273d
00000390: 92fc a23c 59f4 143d bb17 e8bc d412 203c
000003a0: 87cd cbbc 722e 0fbd 9c51 243c f247 27bd
000003b0: a506 42be 8931 673c 4fcb 503d 1d24 e7bd
000003c0: 3cc0 9b3d f230 f6bc 1289 b1bc 1ed9 4e3d
000003d0: eb66 083d e05d 4b3b dde8 bdbc d631 dbbb
000003e0: cbd7 04bc 1be9 253d 2209 553d 1eb4 653d
000003f0: 21b7 5d3d f399 36bc 3d1d 42bd a843 03bd
0.00038445767 -0.012704272 -0.04679683 -0.03964614 0.0101773245 -0.02183877 0.04578932 -0.012937619
0.044198267 0.03048731 0.011690864 -0.0015443667 0.03715036 0.016770508 -0.012438431 -0.044706892
-0.044771433 0.005014482 -0.07280159 0.03767409 0.08011199 -0.08583098 -0.014461106 0.002644548
-0.037534278 0.0635426 -0.07988247 0.023642799 -0.019917643 -0.021734666 -0.01064375 -0.03838586
0.029689569 -0.027618017 0.02196091 -0.027609766 -0.022077275 -0.023653263 -0.022345271 0.050028436
-0.0067501273 -0.04561204 0.014497037 0.08112317 0.06893243 -0.051385146 0.0009081835 0.06803536
0.06397727 -0.01808509 -0.01790625 0.02042614 0.009681751 -0.010475453 0.017532783 -0.024463957
-0.009218899 -0.05896096 0.026192514 -0.018869413 -0.021157093 -0.0061788056 -0.0022261129 0.032981236
-0.022699337 -0.1054091 0.010373487 0.049277805 0.03339126 -0.038049605 -0.012542944 0.030373259
-0.0031863798 -0.029956236 -0.0856461 -0.040572286 -0.06703524 -0.043987297 -0.008667255 -0.0036073546
-0.047427017 -0.0065776957 0.07859543 -0.0059801624 -0.0017051963 0.025037691 -0.052991737 -0.039775383
-0.010897785 -0.12241943 -0.06757925 -0.06267477 -0.053085294 -0.0075263735 -0.023460226 -0.019585542
0.05208561 0.05361518 -0.10180758 -0.07358666 -0.13597812 0.030813465 -0.014939216 -0.0101115415
0.07719125 -0.06412876 -0.008232634 -0.023263376 0.06964074 -0.03331374 -0.008939186 0.027674565
-0.03309919 0.029625785 -0.0053478084 0.044144467 0.013274246 0.09596137 0.013118856 -0.08196016
0.032710083 -0.014001652 -0.09624705 -0.10952124 0.0046016444 0.026629934 0.015224762 0.008769494
-0.03972497 -0.011176133 -0.010991194 -0.025862344 -0.0044699525 -0.072043866 0.01832545 -0.075120576
0.04265462 -0.05541325 2.505908e-06 0.022848576 -0.037355155 0.038796056 0.024300765 -0.03441554
-0.027068231 0.069436006 0.0764995 0.018871954 0.06644243 0.027445659 -0.043173492 0.034421325
-0.07115543 0.04369186 0.041715953 0.08779583 0.08120044 0.007240977 -0.051188737 0.042276055
-0.00011329337 -0.09715566 -0.026594462 0.010747593 0.022611076 -0.04163326 -0.0168993 -0.09917475
-0.050372623 -0.054914705 -0.08737757 -0.010641445 0.040707074 -0.055300746 -0.05586335 -0.017774835
0.022508077 -0.026852777 0.048566137 -0.019274829 0.10982961 0.0475264 -0.058471717 0.0691608
-0.01336994 -0.06968896 -0.014056917 -0.04805092 0.015387758 -0.082206465 -0.045416586 0.08321604
-0.048897468 0.026672315 -0.12409399 -0.110191464 -0.043321297 -0.13139753 0.03442802 0.02883918
-0.01905786 -0.07857127 0.057982117 -0.012106486 -0.13602638 0.008825071 0.0002808427 0.0089181755
0.0049070427 0.054937594 0.02582852 -0.00039949198 0.03820099 -0.016110666 0.00040626354 -0.054816563
0.08469294 0.07095673 -0.04982174 0.024478646 -0.036375217 -0.023424987 -0.016506314 -0.015312942
0.06319312 -0.03727668 0.0013211332 0.04092895 0.019895826 0.03636584 -0.028331628 0.009770114
-0.024878277 -0.034956403 0.010029223 -0.040840097 -0.18947847 0.014110931 0.05097514 -0.11286185
0.07605025 -0.030052636 -0.021671806 0.050500028 0.033301275 0.0031031296 -0.023182327 -0.0066892905
-0.00810809 0.04050551 0.052010663 0.056079976 0.054129723 -0.011145103 -0.047391165 -0.032046944

conv3.bias f4 [128]
00000000: 9bc4 e2bc 9fe2 d1bc 8cb4 02bd b759 c33b
00000010: 6fc9 153d 8d31 183c 8cf6 1cbc ba86 9b3c
00000020: 90ae 9aba dc4d a63b 2924 ea3c ef2c 2fbd
00000030: 58ea 86bc da6c 9c3c 780c 1ebd c5ef 90bc
00000040: fc37 48bd 9f13 b2bc 1b0d 2dbd ca57 34bd
00000050: 5c69 b0bc e8ba 4cba 17bc a8bc ada2 d63b
00000060: f945 03bd e706 75bd 5568 283c cfaa c4bc
00000070: 7496 1cbd ce75 913c e7f4 003c 256d 24bd
00000080: 72f4 a03c 40d9 b7bc 8932 19bd 523d a5bc
00000090: 1cfb acbc 19af 29bd 393a 7dbc ec7c 583c
000000a0: a76d 093d 457a 23bc daa5 3fbd 9e71 7cbb
000000b0: bbb4 a23c df16 3cbd 30ab e6bb 8b40 0fbd
000000c0: b30d 1a3c cc1f 813c 6982 b23c 3214 3abd
000000d0: 5436 59bd bc05 12bb 376c cfbc f714 873c
000000e0: 3de3 a1bd 7ff8 23bd 5a39 1dbd dcb4 2bbd
000000f0: 4a55 8cbc 6e23 beba 7fb7 2e3d f56d 8dbc
00000100: 5de7 20bd 2c73 953b 4bf7 6fbd 7c80 fabc
00000110: 9a15 b9bc 3b91 6f3c d549 bfbc 3339 f8bb
00000120: 4046 87b7 65a0 1e3d 28ca e9bc 41b6 b0bb
00000130: cb9a cfbc 1104 d8bb 6781 1bbd 8069 223c
00000140: 584e af3c 7419 82bc 8285 b23a 0cb6 6abc
00000150: d0cd 95bd 2f9e 133b 9e5f 413c 9ca1 623d
00000160: 2486 7f3c 7e47 a4bd fdf8 2abd 2823 79ba
00000170: 233e aa3c d41c bebc 220f e53c b727 93bd
00000180: 18bf 93bc ba5a e4bc 89b2 91bc 4c94 0abd
00000190: c812 adbc ebb3 863c e3e3 a3bb c398 573c
000001a0: 71fd b73c c380 d5bc 6fc0 293b 943e 43bd
000001b0: b9a9 5fbc 8a6a 04bd de7e 3bbd 4c18 a2bc
000001c0: 014f a83c 8001 75bc 02e8 e2bc c6d0 92bc
000001d0: 4e16 703c 92db 16bc cb55 debb 720d c9bc
000001e0: 9c2a 833c 23bc cc3c a433 023d bcdb d9bc
000001f0: ec5b e8bc 7438 f2bc 036b 1fbd 10da bfbc
-0.02768164 -0.025620757 -0.031910464 0.0059616226 0.036569055 0.009289158 -0.009580266 0.018985141
-0.0011801291 0.0050751995 0.028581696 -0.04276746 -0.016469166 0.019094873 -0.03858611 -0.017692456
-0.048881516 -0.021737872 -0.042248826 -0.044029035 -0.021534614 -0.00078098336 -0.0205975 0.006550154
-0.032049153 -0.059821036 0.010278781 -0.02400723 -0.03822942 0.017756369 0.007870889 -0.04014315
0.01964781 -0.02244246 -0.03740171 -0.020170841 -0.021115832 -0.04142675 -0.015455776 0.013213377
0.03355184 -0.009977882 -0.046789028 -0.003851987 0.01986157 -0.04592025 -0.00703945 -0.034973662
0.00940268 0.015762232 0.0217907 -0.045429416 -0.053030327 -0.002228125 -0.025320156 0.016489489
-0.079046704 -0.040031906 -0.038384773 -0.041920528 -0.017130513 -0.0014506408 0.042655464 -0.017264346
-0.039283145 0.0045608487 -0.058585446 -0.030578844 -0.022593308 0.014622028 -0.023350636 -0.007575178
-1.6125967e-05 0.038727183 -0.028538778 -0.00539282 -0.025342366 -0.0065922816 -0.037965205 0.0099128485
0.021399662 -0.015881278 0.0013620111 -0.01432563 -0.07314646 0.0022524705 0.011802582 0.055329904
0.015595946 -0.080214486 -0.04174136 -0.0009503835 0.020781582 -0.023207106 0.027961317 -0.071853094
-0.018035457 -0.027875293 -0.017785328 -0.033832833 -0.02112712 0.016443213 -0.0050015314 0.01315898
0.022459717 -0.026062375 0.0025902053 -0.0476671 -0.013651305 -0.032328166 -0.045775287 -0.019786976
0.020545484 -0.014953971 -0.02769852 -0.017921817 0.014653755 -0.009207623 -0.0067851297 -0.024542544
0.016011529 0.024992054 0.03178753 -0.026594035 -0.028364144 -0.029567935 -0.038920414 -0.02341941

fc1.weight f4 [10, 128]
00000000: c76c 06bd a36c b3bd a8f6 b33d 53c0 ebbd
00000010: a5a1 a3bd 300d b53d 3b29 cc3c de52 3e3d
00000020: ae14 9abd b679 8ebc 0b73 19be 1e4f dd3d
00000030: 7f6c b33d 937e fd3c 73dd 66bd acf0 42bb
00000040: a431 d6bd cd8f ddbd bf9d 64bd 8d9a 44be
00000050: ae03 59bd 22aa 923d 7436 0cbd 7d5a cbbd
00000060: 8e02 b4bd cf7f b6bd 9404 4dbc 8c05 113d
00000070: 3b3d 623d be14 b53d df72 9dbd 1fee 663d
00000080: c3b3 e3bc 8b56 853d 166b ec3b 1fc0 0bbe
00000090: 7965 bbbd ea8b babc 79c6 eabd 0cda 81bc
000000a0: 0559 c0bd 0594 8cbd f655 56bd 16ea 21be
000000b0: b482 183d 8a32 853a 814a e73c 3b0a 2cbe
000000c0: 6842 54be 367d 19bd 0c00 1cbe baeb 84bd
000000d0: 3631 66bd 67e2 243d 382d 613c 7666 5cbd
000000e0: 9bdb 46bd 7293 eebd 6ebb 21be f286 92bd
000000f0: c5f8 a5bd cdfa e4bd 0e0d 673d 03c4 95bb
00000100: eca8 ebbc c48f cc3d d772 e03c 894f 67ba
00000110: 3446 ee3d a154 29bd 9287 dd3d 90bd 92bc
00000120: 6fa0 213d 1b64 823d 6221 b03d 7b4f 703d
00000130: 6a97 2cbe 627b 483d f05d afbd 998d 903d
00000140: 8bfb 9a3c 8f4b 2dbe 52dd 0ebd 9eea 9c3d
00000150: cea4 dabd 127d 0fbe c65f f63c 99d9 cdbc
00000160: 2c4a 133d 6f94 853d 28f6 bf3c 9d26 7fbd
00000170: 01c3 003e 2681 953d 7812 3bbd a15b f0bd
00000180: c882 eebd af23 85bd ac79 63bc 25b0 11be
00000190: 0329 0bbe 359e 933c 1972 9bbd c584 83bd
000001a0: 6cf8 8fbd cfc1 a0bc 411c ca3c 272a 983d
000001b0: fbc8 dc3d b186 10be c0b2 95bd 6e85 f23c
000001c0: 8a30 503d 3a72 24bd f639 f93d a837 293d
000001d0: 0519 6abe a293 a03d be26 6c3d 4d7e 9e3c
000001e0: be2f ccbc ab70 a93d a6de 5c3d e6e6 34be
000001f0: 9e51 fa3d 15fc 66bd 4fbb 99bd 5547 3d3d
00000200: 6914 8b3a 959b c9bc 3f41 7cbd f667 673b
00000210: 2d77 423e fd35 2c3e 89a0 39be f338 ee3b
00000220: e323 f43c c6ca b4bd c20f 093d a387 5cbe
00000230: 54fc 30be ba58 333d 870d 29be 8565 853d
00000240: 81a4 a3bd 221a f5bd 79a1 833c 99ec c4bb
00000250: 2880 15be 04e5 bb3d 57e8 23bd 55c2 ab3d
00000260: bfe7 17be 3d13 dbbd 2321 af3d e081 8abd
00000270: 5424 28be e7ed 06bd d77e b83d 59e5 71bd
00000280: 01eb bf3b 2d9d e6bd b661 7fbd 948e c43d
00000290: c6da 173e 59c1 a9bc 0b69 e83d 175a 3bbe
000002a0: 7c7a 33be 7db9 72bc 3c6a 543c ccf1 e83d
000002b0: f678 9bbd 6175 00be 6cbd 04be e0b1 87bd
000002c0: 331e 563d 8219 083e 71b8 1cbe d1ff 8bbd
000002d0: 653a 12bd 07b9 f3bd 75de 17be 5d68 99bd
000002e0: 4bf3 07bd d717 bbbc a957 a7bd 26f2 7fbd
000002f0: 455e 92bd 0c2a 073e 8fb9 44be 87b2 093e
00000300: b2f0 2f3b 6424 0bbe c3a1 a93c a84b 713d
00000310: a8d6 a2bd c61a ecbc 4751 e4bc 98ff 223d
00000320: 6d4c ab3c b1a1 893d cd3c aabd 53ce b03d
00000330: a281 babd 2838 19bd 56ba 95bd beac 53be
00000340: e523 533d b7a3 39be bf78 a73d f4da af3d
00000350: d786 42be 3fa6 98bd 0456 333e 5878 223e
00000360: a66c eb3d 2ee2 0fbe 2632 323d e187 0f3e
00000370: 6603 c8bd b6cb d63d 5ca7 a13d 2e61 fbbc
00000380: c922 e4bd 1806 923c 3264 e5bd 6de5 493d
00000390: c7f2 d23d a72d 073b 0a07 2b3c aad5 06bd
000003a0: dadb aebd af0d d4bd 461d b3bd 882a 95be
000003b0: 4c69 143e b508 7abb 36a1 4dbe 3a88 9ebd
000003c0: 69e7 91be 0753 64bd bddd 0dbe 288c 3abe
000003d0: fc85 42bd d465 8e3d a9e9 e6bd 6edb 2d3c
000003e0: a627 eb3c 3cd6 91bd 3a22 053d 2451 1ebd
000003f0: 8859 2a3d bdef 88bc 90e6 ba3d 0718 46bd
-0.032818582 -0.08760955 0.0878728 -0.11511292 -0.079898156 0.08840406 0.024922004 0.046465747
-0.075234756 -0.01739202 -0.14985292 0.10806106 0.08760928 0.030944144 -0.056363534 -0.0029745502
-0.10458687 -0.108184434 -0.0558145 -0.19199581 -0.052982025 0.071613565 -0.034231618 -0.09929369
-0.0878955 -0.08911096 -0.012513299 0.03540568 0.055234175 0.08841847 -0.076879255 0.056379434
-0.027795678 0.065106474 0.007214914 -0.13647507 -0.09150214 -0.022771794 -0.11463637 -0.015851043
-0.09391979 -0.0686417 -0.052328072 -0.15811953 0.037234023 0.0010162157 0.028233768 -0.16800778
-0.20728457 -0.037472926 -0.15234393 -0.06490274 -0.056199275 0.040254977 0.013743691 -0.053808652
-0.048549276 -0.11649217 -0.15794155 -0.07154645 -0.0810409 -0.11180649 0.056408934 -0.0045704856
-0.028767072 0.099883586 0.02739851 -0.00088238023 0.11634484 -0.041340474 0.108168736 -0.017912656
0.039459642 0.0636675 0.08600117 0.05866955 -0.16854635 0.048945792 -0.08562839 0.070582576
0.018918773 -0.16923355 -0.034879036 0.07661937 -0.10675965 -0.14012554 0.030074965 -0.025128173
0.035959408 0.06522452 0.023432806 -0.062292684 0.12574388 0.07300024 -0.04567191 -0.11736227
-0.11646038 -0.06500947 -0.013883989 -0.1422735 -0.13589863 0.018019775 -0.07590122 -0.06421808
-0.070298046 -0.019623665 0.024671676 0.07429915 0.107805215 -0.1411388 -0.073094845 0.02960464
0.05082754 -0.040147997 0.12169258 0.041312844 -0.22861107 0.07840659 0.057654135 0.019347334
-0.024925109 0.08273443 0.05392327 -0.17666206 0.122225985 -0.056392748 -0.075064294 0.046210606
0.0010610941 -0.02461032 -0.06158566 0.0035309768 0.18990774 0.1681747 -0.18127646 0.0072699725
0.029802268 -0.088277385 0.033462293 -0.21536116 -0.17283756 0.043785788 -0.16509067 0.06513504
-0.07990361 -0.11967875 0.016068207 -0.00600965 -0.14599669 0.09174541 -0.0400165 0.08386675
-0.14834498 -0.10697029 0.08551242 -0.06763053 -0.16420108 -0.032941725 0.09008568 -0.059056614
0.005856872 -0.11260448 -0.062349044 0.09597507 0.14829549 -0.020722078 0.1134816 -0.18296085
-0.17527193 -0.014814732 0.012964781 0.11374244 -0.07591431 -0.12544776 -0.12962884 -0.06625724
0.052274894 0.1329098 -0.15304734 -0.068359025 -0.03570022 -0.119005255 -0.14830954 -0.07490609
-0.033191007 -0.022838516 -0.08171017 -0.06248679 -0.07146887 0.13199633 -0.1921141 0.13447009
0.0026846346 -0.135881 0.020707017 0.058910042 -0.07951099 -0.02882136 -0.027870787 0.039794534
0.020910466 0.06720293 -0.08312378 0.08633103 -0.09106757 -0.03740707 -0.073109314 -0.20671365
0.051547904 -0.18128859 0.08177327 0.08586684 -0.1899675 -0.07453584 0.17513281 0.1586622
0.114953324 -0.14051124 0.043504857 0.14016677 -0.09766273 0.104880735 0.078932494 -0.030685987
-0.11139447 0.017825171 -0.11200751 0.049291063 0.10300212 0.0020626576 0.01043869 -0.03291861
-0.08538027 -0.103541724 -0.08745818 -0.2913401 0.14493293 -0.0038152162 -0.20081028 -0.07740827
-0.28496864 -0.055743244 -0.13854118 -0.18217528 -0.04749106 0.06953016 -0.11275036 0.010611398
0.02870543 -0.0712094 0.032503344 -0.0386516 0.04158929 -0.016715879 0.091260076 -0.048362758

fc1.bias f4 [10]
00000000: 7cb8 9c3c fea9 c03c d8af 92bd 06f4 7d3d
00000010: 1a0c 463d b21c eabb 5ef3 ffbb 0c27 763d
00000020: 9a25 83bd 40c5 f9bc
0.019130938 0.023518559 -0.07162446 0.062000297 0.048351385 -0.007144534 -0.007810994 0.06009583
-0.06403656 -0.030489564
