models/model.pth (torch, 378536 bytes, 8 tensors)

conv1.weight f4 [32, 1, 3, 3]
000000 c1 2f 02 3e 36 54 d1 3e 9a 61 8e be 8c 29 84 3e
       0.12713529 0.4088456 -0.2780884 0.25812948
000010 0d b6 85 be 18 7d 01 bf 4a f6 07 bf 4d 49 ee be
       -0.26115456 -0.505815 -0.5311018 -0.465403
000020 2b 0a c4 be 8e c1 c6 3e 1a 1e d2 3e 32 1e 39 3d
       -0.38289008 0.38819546 0.4103859 0.045194812
000030 6a 59 5b be 71 e4 42 3d d7 27 e1 bb f3 66 d3 3d
       -0.21420828 0.04758114 -0.0068712044 0.103223704
000040 b2 9a f8 be 73 1a e8 be 86 90 9a 3e 39 19 20 3e
       -0.48555523 -0.4533268 0.30188388 0.15634622
000050 48 b2 c2 3d 65 84 e6 3d 8d d5 17 3e d8 d6 d1 be
       0.09506661 0.11255721 0.14827557 -0.40984225
000060 82 fe 7e bd 01 b9 dc 3d 8b 53 e8 be 0b 87 50 be
       -0.062254436 0.10777474 -0.45376238 -0.20364015
000070 fa cb 80 3e b3 58 9e 3e 2b 84 c1 be 0a f0 7d be
       0.25155622 0.30927047 -0.3779615 -0.24798599
000080 ea 43 c7 3e 7a d9 d7 ba 12 97 7b 3e 4c cd 53 3d
       0.38919002 -0.0016468011 0.24569348 0.05170946
000090 59 c4 cc be 54 ed 9e 3e ea 4f b5 3d 9d ee dd be
       -0.3999355 0.31040442 0.08853133 -0.4334611
0000a0 39 d2 45 be 86 fd 84 be d2 d4 92 be ca 0c cc be
       -0.19318475 -0.25974673 -0.28677994 -0.39853507
0000b0 27 1b 6e be 6e fe 8c be 16 35 0c 3d fa 28 64 3e
       -0.23252545 -0.27537864 0.034230314 0.22281256
0000c0 55 a2 85 be 1a bb 8c be 5e 6b 2d 3e f3 78 26 3e
       -0.26100412 -0.27486497 0.16935489 0.16257076
0000d0 ad 29 c1 be ef a7 e1 bd ae fc 82 be 33 59 db be
       -0.3772711 -0.11018359 -0.25583404 -0.4284149
0000e0 d3 5b 48 be aa 82 23 be 15 d6 e5 be e6 6e ec 3d
       -0.19566278 -0.15967813 -0.44889894 0.1154459
0000f0 7d 52 48 3e 83 6e f4 be 13 3b 51 be d2 4e b3 3e
       0.19562717 -0.47740564 -0.20432691 0.35021073
000100 3f 63 92 be 75 da 61 3d 11 40 4f 3e d0 db 30 3e
       -0.28591344 0.055139977 0.20239283 0.17271352
000110 71 32 a7 3e 16 7f 81 3e 9a 7d 19 3e 5b 34 c3 3e
       0.3265567 0.2529227 0.1498932 0.38125882
000120 4e e4 a6 3e 37 3c fe 3d b3 8e 8d be 2a b3 10 bd
       0.32596058 0.12413829 -0.27647933 -0.035327114
000130 77 65 9f 3e 9e 3d 6c be 5f 2d 41 bd 1a 1a 2f 3e
       0.311321 -0.2307038 -0.04716241 0.170998
000140 97 32 4a be 76 d9 0f be c2 e7 b7 3e d7 dd 55 3e
       -0.19745861 -0.14047799 0.35919005 0.20885406
000150 6d e2 9d be 19 12 b9 3e c3 e0 80 be bc 71 0a 3d
       -0.30836812 0.3614662 -0.2517148 0.03379987
000160 f7 8f 22 3e 6e 49 dd be b0 09 83 bd de fc 54 be
       0.1587523 -0.43220085 -0.06398332 -0.20799586
000170 b5 47 5f 3d 63 40 9e be 27 a2 08 be 6f ca 15 3e
       0.054511745 -0.30908498 -0.13343106 0.14628004
000180 26 4b 5c 3e 74 1d 78 3e 7b 22 c8 3d 60 16 b4 3e
       0.21513042 0.24229985 0.09772202 0.3517332
000190 c2 aa 2f 3e 0b 3b 7b 3e ea 50 6f be d6 8a 93 3e
       0.17154983 0.24534242 -0.2337071 0.2881686
0001a0 58 31 89 bd bd d8 c2 bd 6b 78 ea be ab 14 0a be
       -0.06698865 -0.09513996 -0.45794997 -0.13484447
0001b0 9c 6a d1 be 56 b3 13 bd 35 78 5f 3b 2e b2 b8 3e
       -0.4090165 -0.0360597 0.0034098749 0.3607344
0001c0 5d da fc bd 59 62 81 be 60 8b 9d 3e 97 88 92 3e
       -0.12346337 -0.25270346 0.30770397 0.28619835
0001d0 0d bd 1d 3e 5e d2 b8 bd d3 13 41 3e de 3b fe 3d
       0.15404148 -0.09024499 0.18855219 0.124137625
0001e0 33 b7 c0 be a5 c6 6d 3e 26 b0 26 be b3 b7 1d be
       -0.3763977 0.23220308 -0.16278133 -0.15402107
0001f0 0f c8 99 3e 53 ff c0 be 7f 93 02 3d 4a 2d 7d 3e
       0.30035445 -0.37694797 0.031878944 0.24724308
000200 95 9e 1f be fb 51 26 3e 9d 4a 88 3e 21 e8 c3 be
       -0.15587838 0.1624221 0.26619425 -0.38263038
000210 73 2b 66 3d db d5 7b 3d 85 d2 cc be e7 20 c6 3e
       0.05619378 0.061483245 -0.40004364 0.38696977
000220 c1 5b eb be 09 a7 bc be 69 7e 05 be da b2 bd be
       -0.4596844 -0.36846188 -0.13036503 -0.37050515
000230 47 6d bc 3d 7b 56 9d 3d c4 0f ac be 03 bb e3 be
       0.092005305 0.076825105 -0.33605778 -0.44478616
000240 64 36 18 be a8 8b 88 3e 81 88 e4 be 77 83 38 3c
       -0.14864498 0.2666905 -0.44635394 0.011261812
000250 38 d5 73 3e f3 de 96 3e e9 15 b4 3e 0c 18 11 be
       0.23811805 0.29466972 0.35172966 -0.1416933
000260 8e 9e 8b be 5e 15 87 3e bc bd b1 3e de 1d 9d 3e
       -0.27269405 0.2638349 0.34715068 0.3068685
000270 cd d6 4b 3d 05 03 9f 3e b3 2b 28 bd 7a 8c 24 3e
       0.049765397 0.3105699 -0.0410573 0.16069213
000280 f2 0a 5b 3d 56 c1 d3 3d 7f e2 10 be eb 12 77 3d
       0.053477235 0.1033961 -0.14148901 0.060320776
000290 0d 51 7a 3e b2 20 a8 be da a8 ac 3e 69 fe f7 bd
       0.24444981 -0.32837445 0.33722574 -0.12109072
0002a0 34 e1 3a bc c6 b2 ad 3e 26 6e 26 be 04 49 c0 3e
       -0.011406232 0.33925456 -0.16252956 0.37555707
0002b0 b2 f2 9f 3b 4e df c3 bc c7 73 54 be b4 5a e1 3e
       0.0048812265 -0.02391019 -0.2074729 0.44014513
0002c0 94 9c 97 3e 42 7f 8f be c1 77 e9 be ae f2 f0 be
       0.29611647 -0.28026778 -0.45599177 -0.4706015
0002d0 60 e4 90 3e a5 43 8f 3e f7 66 c7 be 3c b0 44 bd
       0.28299236 0.27981296 -0.38945743 -0.048019633
0002e0 cc 86 2c be a9 cb 1c 3e 0f 57 e5 3d 14 86 d4 3d
       -0.16848296 0.15312065 0.11198246 0.10377136
0002f0 16 29 9f 3e 07 89 10 3e 75 de 98 3e a6 bd 0d be
       0.31086034 0.14114772 0.2985722 -0.13841876
000300 a8 ed b7 3e 81 d6 de bc df d2 63 3d 83 a7 a0 3d
       0.35923505 -0.027201893 0.055621024 0.0784445
000310 51 dd 84 be 1d 12 5b be 43 82 2d bc 72 9c c9 be
       -0.259501 -0.21393628 -0.010590139 -0.3937717
000320 23 0e 91 be 54 95 76 bd 23 eb 9f be 04 f3 e7 3b
       -0.28331098 -0.060201004 -0.31234083 0.0070785303
000330 6b 53 d5 3d 7f 73 98 3e 18 e7 00 3f 7e 66 88 3e
       0.10416301 0.29775617 0.5035262 0.26640695
000340 30 3b 28 3e 26 ff 67 3d b2 83 e9 bc 50 b7 2f be
       0.16428828 0.056639813 -0.02850518 -0.17159772
000350 e8 08 ad bd ee 6e d7 be f5 c8 47 bd 0e 7b 57 be
       -0.08448964 -0.4207682 -0.048775632 -0.21043035
000360 72 2e ee be e4 d4 bd be 26 a3 0a bb 4b b7 92 be
       -0.4651981 -0.37076485 -0.0021154373 -0.28655466
000370 59 2a c0 3e 43 77 88 3e 02 2a 92 3e fe 47 50 3e
       0.3753231 0.2665349 0.28547674 0.20339963
000380 19 db 30 3d a8 11 ad be ff 09 66 be 30 70 ff be
       0.043177698 -0.33802533 -0.2246475 -0.4989028
000390 b0 dc be be c6 57 d0 be 12 49 76 3c d3 aa 35 be
       -0.37277746 -0.40691966 0.01503207 -0.17740946
0003a0 63 96 eb be 76 f8 60 3e 33 9e 70 be 94 9d d4 be
       -0.46013173 0.2196978 -0.23497848 -0.41526473
0003b0 33 57 a4 be 26 3b 9e 3e ea 2d 13 3d ec f5 ab be
       -0.32097778 0.30904502 0.03593246 -0.3358606
0003c0 d9 f3 8f 3e 22 48 b5 3e 1d a9 5a 3e bf f4 56 3e
       0.28115728 0.35406595 0.21353574 0.209918
0003d0 98 a1 9a 3e 92 5e 71 be 48 4f ad 3a 3b 3b 91 3e
       0.3020141 -0.23571232 0.001322248 0.28365502
0003e0 18 75 85 be ae d5 85 3c b4 d0 b6 3e b2 33 a2 3e
       -0.26065898 0.016337242 0.35706103 0.31680065
0003f0 4e 27 a1 3e f1 3a 46 be 63 d5 bc be 56 ca f2 3e
       0.314753 -0.19358422 -0.3688155 0.47419995

conv1.bias f4 [32]
000000 51 83 4c bd d0 a6 84 3e 72 2c d6 3d fd d0 b1 3d
       -0.04992992 0.25908518 0.10457696 0.086824395
000010 f1 e6 b5 3c 10 33 92 3e 10 ea 06 3e 3a 78 86 be
       0.022204848 0.28554583 0.13175225 -0.262636
000020 e9 1d b8 3d 8d 28 cc 3c ba ea 85 3d 1d 70 d7 3d
       0.0899008 0.02492168 0.06538911 0.10519431
000030 ed f0 01 3e dc 36 55 3d 23 15 bc bc f6 09 8e 3e
       0.12689562 0.05205427 -0.022959298 0.27741975
000040 f4 cb 54 3c aa 6d ba bd 13 16 a6 be 7b 8c 43 3d
       0.012988079 -0.09102948 -0.32438716 0.047741394
000050 48 39 51 3e 51 ef 7d 3c f8 39 0c 3e 72 2c 1f 3e
       0.20432007 0.015498952 0.13693988 0.15544298
000060 ad 1b 17 3b fd a8 fe bd 64 fc bc bd 6a 83 59 be
       0.0023057268 -0.12434576 -0.09227827 -0.21241537
000070 33 bd f5 bd 20 0b 50 3e e2 49 d3 3d c0 0e b5 3d
       -0.119989775 0.20316744 0.103168264 0.08840704

conv2.weight f4 [64, 32, 3, 3]
000000 b1 6d e8 39 d2 83 e6 3c 14 b5 50 bd 46 ef ca bd
       0.00044332215 0.028139029 -0.05095394 -0.09908919
000010 56 99 8a bd 42 c9 37 bd d0 93 23 be f5 dc 2b be
       -0.06767528 -0.04486967 -0.15974355 -0.16783507
000020 b8 6d fe bc 26 7d b4 bc 1f 5c 44 bd 11 04 a4 bc
       -0.031058177 -0.022032332 -0.047939416 -0.02002147
000030 a8 6b 28 bd a5 f9 c2 bd d6 d1 16 bc 20 42 5e bd
       -0.041118294 -0.09520272 -0.009205302 -0.05426228
000040 4c ae 0d 3d 16 c3 02 bd 8d e1 7f bd 07 6f 92 bd
       0.03459005 -0.03192433 -0.06247096 -0.07150083
000050 db ac 10 bd b5 78 14 3d e9 6a 92 bc 10 21 4c bd
       -0.035321098 0.036247928 -0.017873244 -0.04983622
000060 a0 45 25 b9 f6 49 dc 3b 5a d1 0b bd 0b 80 ec bd
       -0.00015761564 0.006722684 -0.0341352 -0.1154786
000070 dd 3e 22 3d 6e 8b 7a bc 53 c6 b0 3b 27 43 4e bd
       0.039610732 -0.015292032 0.005394736 -0.05035701
000080 2e ba 38 bd 16 f6 96 3d 05 d8 54 3c f6 51 81 3d
       -0.04509943 0.07371156 0.012990956 0.06314461
000090 77 72 c3 bc 0b 4e 6a 3d 53 90 2d 3c 36 ba bb bd
       -0.023858292 0.057203334 0.010593492 -0.09166376
0000a0 5c e2 0a 3c 19 37 4a 3d 96 67 a5 bc d6 d3 02 bd
       0.00847682 0.04936895 -0.020190995 -0.031940304
0000b0 b1 5d 5d 3d aa 2b df 3d 26 bd 9f 3d b2 8b 62 3d
       0.05404443 0.10897 0.07799749 0.055309005
0000c0 bf 39 75 bd e5 0e 02 3e ae de c1 3d db 6e c1 3d
       -0.059869524 0.12700994 0.09466301 0.09444972
0000d0 8b cc d1 3d 11 eb 23 3e 63 80 67 3d 42 73 91 3d
       0.102440916 0.1600764 0.056518923 0.07102062
0000e0 f0 90 34 bd 59 6f d6 bd e7 c5 04 3d 49 17 47 3d
       -0.044083536 -0.10470457 0.032415297 0.04860619
0000f0 3d fd 10 3c 96 07 11 3d c3 2d be 3d 27 30 15 bd
       0.008849439 0.035407625 0.09286072 -0.036422875
000100 02 32 c0 bd c9 a1 52 3d bd f0 be 3c 96 b2 40 bc
       -0.09384538 0.05142382 0.023308152 -0.011761328
000110 4c c3 1b bd c2 da 36 3d e4 f9 f9 bc e0 0b 66 bd
       -0.038028046 0.044642217 -0.030514665 -0.05616367
000120 1e 97 2d bb a0 e3 26 bd c7 ed c6 3d 6a 12 91 3d
       -0.0026487778 -0.040744424 0.09713321 0.0708359
000130 3c 87 cc bd 72 40 09 bd c8 fb 67 3d 24 93 c8 3c
       -0.099867314 -0.033508725 0.0566366 0.024484225
000140 33 5c 6c 3c 5c 79 9e bc 8f a7 78 bd a3 80 05 3d
       0.014426279 -0.019344978 -0.06070667 0.03259338
000150 72 84 4a bb 8d 5a 4b bd e1 44 9e 3d 01 3a 02 3d
       -0.0030901697 -0.049646903 0.07727981 0.031793598
000160 2d 86 da 3c ae 24 ea bc 92 ae 0c 3d ea a7 56 bc
       0.026675308 -0.028581943 0.03434617 -0.013101557
000170 5b 2c c9 3c 86 b1 4b 3d 41 55 3d 3d 56 f7 90 bd
       0.024557283 0.049729846 0.046223883 -0.070784256
000180 e9 66 e4 bc 71 2a a1 bc 24 44 ab 3c 9b 2e 51 bd
       -0.027881103 -0.019673558 0.020906515 -0.051069837
000190 90 48 61 bd 5b a0 84 3d 8b a5 cb 3d 38 45 8e bd
       -0.05500084 0.06475898 0.09943684 -0.06946796
0001a0 81 3c 63 bd 09 4f c9 3b 5c 18 e8 bb 86 72 ad bd
       -0.055477623 0.006143455 -0.007082982 -0.08469109
0001b0 09 f4 95 3d 57 c1 7b bd 9f aa cc bd aa 51 75 3d
       0.07321937 -0.06146368 -0.09993481 0.059892334
0001c0 33 1b fc 3c d8 cf 15 bd 18 13 0c 3c 43 b6 f2 3d
       0.030774688 -0.03657517 0.008549474 0.1185117
0001d0 dc 15 4b 3c 2b 45 99 bd f7 f8 3e 3c c6 2c 20 3d
       0.012395348 -0.07483896 0.0116560375 0.0391052
0001e0 41 5c ae 3c c6 eb 3e bc a9 38 6a 3d d1 4a d0 3d
       0.021284224 -0.011652892 0.05718294 0.1017052
0001f0 3a 62 80 3d c8 74 91 3d e2 bd 1f bd 9b 7b bb bd
       0.06268735 0.071023524 -0.038999446 -0.09154435
000200 6c 36 30 3c a3 55 9b 3c 82 d6 df bc b7 03 be bc
       0.010755163 0.018961733 -0.027323965 -0.02319513
000210 51 92 19 bd 53 b3 98 3d fa 10 22 3c 18 92 e3 3c
       -0.037493054 0.074560784 0.009891743 0.027779624
000220 08 b0 6a bd 1d fb f2 3b 17 8f 06 bd ca 76 36 bd
       -0.057296783 0.007415189 -0.032851305 -0.04454688
000230 a4 f8 12 bd 80 2e 0e be e8 0d 3c bd 10 0c bd 3b
       -0.035881653 -0.13884926 -0.0459117 0.00576926
000240 67 1f 1b bd 66 57 f3 bd a4 71 d5 bc 24 a3 00 bb
       -0.037871744 -0.11881904 -0.026055165 -0.001962849
000250 7f 62 1e 3d bb e3 27 bc a7 55 b1 3d de 1c 78 3d
       0.038668152 -0.010247166 0.08658915 0.060574405
000260 4d 97 23 3d 3d bf b8 bd 39 5f d8 bd 17 84 0e 3d
       0.039939214 -0.09020851 -0.10565037 0.03479394
000270 f1 3b 78 3c e2 f3 ce bd 31 5b d3 3c 1e 8b f3 bc
       0.01515101 -0.10105111 0.02580032 -0.029729422
000280 ac db 4f bd 9a 9d 47 bc 4b 61 f3 bd 74 f7 82 bd
       -0.050746605 -0.012183571 -0.118837915 -0.06394854
000290 2e 55 74 3d 94 6a 1a bc 06 fc a2 bd 10 8b 33 bb
       0.059651546 -0.009424824 -0.07958226 -0.002739612
0002a0 02 47 80 3d 17 d7 5a 3d 62 70 50 bd 88 68 bf 3d
       0.06263544 0.053427782 -0.050888427 0.0934611
0002b0 bc 7f 3a 3b 24 32 f6 bc e3 49 34 3d dc 01 5e bd
       0.0028457483 -0.030053206 0.044015776 -0.054200992
0002c0 d6 5f bf bd 7a 9b 31 bd 00 a3 3f bd ec b2 81 bd
       -0.09344451 -0.043361165 -0.04678631 -0.06332955
0002d0 89 51 c1 bb 03 bd dd bd 96 a2 ad 3c 5a 75 bd 3d
       -0.0058996123 -0.10827067 0.021195691 0.09250899
0002e0 bf 02 ba bd 17 f3 9c bd fc fc c2 3d e5 7b 7b 3d
       -0.09082555 -0.07663553 0.09520909 0.061397452
0002f0 0d ec db 3c 22 37 86 bd a2 ad 91 bd c9 04 38 3b
       0.026845956 -0.065534845 -0.07113196 0.0028079024
000300 eb 03 72 3d 88 cb cf bc 0f 46 3e bc ab 39 a1 3b
       0.059085768 -0.025365606 -0.011613383 0.0049202046
000310 6f 0e 39 3d ee c6 d8 3c 43 fe 06 3d 7b 30 5f bd
       0.04517978 0.026462045 0.032957327 -0.054489594
000320 6e 13 91 bd c5 ab 1a 3c 70 a5 28 3d dc 98 d5 bd
       -0.07083784 0.009440367 0.0411734 -0.10429546
000330 04 f2 89 bd ab 38 3b bc 24 65 4d bd 68 51 dd 3d
       -0.06735614 -0.011427085 -0.050145283 0.10806543
000340 4d fb 8e 3a 4d ad fa bb 93 e7 07 3d 18 1e 7b bc
       0.0010908634 -0.0076500536 0.03317983 -0.015326999
000350 64 51 e2 bd 2e b3 0a 3d 43 4b ea bb a6 0b 1d bc
       -0.1105068 0.033862285 -0.007150085 -0.009585297
000360 3f 31 31 3c 49 3c 0b 3d 25 ba fa 3b 55 05 1b 3d
       0.010814964 0.03399304 0.0076515847 0.037846882
000370 86 7a 8d 3d 73 cc 8e bd 26 99 16 3b 2b 88 df bc
       0.06908135 -0.06972589 0.0022979467 -0.02728661
000380 cc 51 56 3c 52 ca 12 bd 7a 93 d7 3c 0e be b1 bd
       0.013081025 -0.03583748 0.02631544 -0.08678828
000390 61 85 91 bd b0 5f 8f bd 4d b7 40 bd 25 a5 d3 bd
       -0.07105518 -0.07000673 -0.04704981 -0.10334233
0003a0 c1 d9 ab bc 76 7b d5 bc c5 21 81 3e 02 8e c6 3d
       -0.020977857 -0.026059847 0.25221077 0.096950546
0003b0 7e d8 16 be 9a 02 d8 3d f0 22 ba 3d eb 65 a8 bd
       -0.14731023 0.10547371 0.09088695 -0.08222564
0003c0 e8 9b f9 3d 5a 16 34 3e a0 0d 9f 3d 9b 54 ff bc
       0.1218794 0.17586651 0.07766271 -0.031168273
0003d0 aa 32 14 be 6d bb 58 3d 72 f1 86 3c a5 03 75 bd
       -0.14472452 0.05291312 0.016472552 -0.05981793
0003e0 10 b6 05 bd 75 ab b0 3d 94 4f 61 3d 7c 52 02 bd
       -0.03264433 0.08626453 0.055007532 -0.031816944
0003f0 a0 eb ce 3c 85 d4 09 be 0c 64 8a bd 45 80 dc 3d
       0.02525884 -0.13459976 -0.06757364 0.10766653

conv2.bias f4 [64]
000000 cd ee 2d bd f2 6f 01 bd 4e 09 00 bc c8 bd 0f bd
       -0.042464066 -0.0316009 -0.007814718 -0.0350931
000010 3f 05 82 bd 77 50 8a 3c d7 ee a8 bd 5a c1 33 bc
       -0.06348657 0.016884072 -0.0824868 -0.010971392
000020 43 b7 1c bd 76 74 e1 bc b8 b1 75 bd e6 0f 55 3d
       -0.03826071 -0.027521353 -0.05998394 0.052017115
000030 73 46 80 bc f7 d8 29 bd 42 ee 0e bd 0d c0 af 3c
       -0.015658593 -0.04146668 -0.03489519 0.021453882
000040 eb 8a 0d 3d 13 89 88 bd fb c1 1a bd 06 20 4f bd
       0.03455631 -0.0666677 -0.03778265 -0.05056765
000050 31 60 35 3c 0e 0e 89 bd f3 a0 71 3c 9d cf ab bd
       0.011070297 -0.06692134 0.014747846 -0.083892085
000060 99 71 5b bd d8 11 5f bd 8a e5 3d 3c 5b a2 74 bd
       -0.053575132 -0.054460377 0.011590371 -0.059725147
000070 13 1d 7a bc bc 0d b6 3c 97 9b 78 3c fc b9 53 3d
       -0.015265721 0.022223346 0.015173814 0.05169104
000080 fc 91 e0 bb cb f0 a8 3b 3e c9 e1 bc 95 ba 6a bd
       -0.00685334 0.005155658 -0.02756178 -0.057306845
000090 89 ac 45 bd 21 d2 8b bc fc af fe 3c 54 24 60 3d
       -0.048260245 -0.01706797 0.031089775 0.054722145
0000a0 77 4d ed 3c c4 8d 8e bd e2 c1 92 bd ed 37 19 3d
       0.028967602 -0.069606334 -0.071658865 0.03740685
0000b0 3d 45 aa bd a0 e2 e7 bc 63 f3 46 bd cb 32 4f 3c
       -0.083139874 -0.028306305 -0.048571955 0.012646387
0000c0 7d fd ff 3b 98 0f 39 bd 6d 2e 6a bd 2f bc a4 bb
       0.0078122006 -0.045180887 -0.05717318 -0.005027316
0000d0 2e 8a 66 3c 69 3c 57 bd 72 ec 8c bd 3d be 3f bd
       0.014071031 -0.052547846 -0.06881036 -0.046812285
0000e0 08 ca 1a bd db f3 a6 bc e4 1c 5b bd e5 97 e5 bc
       -0.03779033 -0.020379951 -0.05349435 -0.02802653
0000f0 d1 80 55 bb 0a ec 95 bc 2a ec e7 3c 5c 85 26 bc
       -0.0032578001 -0.018301029 0.028310854 -0.010163631

conv3.weight f4 [128, 64, 3, 3]
000000 29 c2 07 bd c4 e9 78 bd cd 44 97 bc 5b ac eb ba
       -0.03314415 -0.06076981 -0.018465424 -0.0017980443
000010 a4 ae 26 ba 62 10 90 bd 30 51 2e bd 1e 45 c4 3c
       -0.0006358421 -0.07034375 -0.042557895 0.023958739
000020 1b 88 d7 3c 7b 7b 02 bd d3 3f ea bc 0c 33 0c bc
       0.026310017 -0.03185604 -0.028594887 -0.008557092
000030 7d 67 83 3c 3d 56 a6 3c 5c 76 29 bc be 81 31 bc
       0.016040558 0.020304793 -0.0103431605 -0.010834156
000040 f1 0c 78 bc bd 9f 8e 3c 32 b7 e2 3c 3d c2 79 bb
       -0.015139804 0.017410154 0.027675245 -0.003811016
000050 53 bb 20 3d 25 f8 6c 3c 5b 59 32 3d 76 3a 2a 3c
       0.039241146 0.014463459 0.043542247 0.010389915
000060 0b 4b c9 bc 65 60 40 bc 3e b0 34 3d db 6c 46 bd
       -0.024571916 -0.011741732 0.04411339 -0.048443656
000070 1a 7c b3 bd 87 c1 de 3c 53 b1 80 3c a6 f4 82 bb
       -0.08763905 0.02719189 0.015709555 -0.0039964495
000080 6c 07 8e bc ea 9a ce bc 57 15 45 3d 0f 5a dd 3c
       -0.017337523 -0.025220353 0.048116054 0.027020482
000090 8c e3 84 3d 5e 66 25 bd 9c 2b 44 bd 0d 7c 6d 3c
       0.064887136 -0.040380828 -0.04789315 0.014494908
0000a0 52 03 1a 3c e4 c0 95 bc 54 ca 51 3d 5f b9 cc 3d
       0.009400206 -0.018280454 0.051218346 0.09996294
0000b0 b0 e6 55 bc 27 ca 93 3c bc f8 a8 3d 6c b6 92 3d
       -0.0130554885 0.01804073 0.08250567 0.071637005
0000c0 c7 5e 87 3d 7c 41 68 3c 1d 6f 41 3d 84 04 6f bc
       0.06609874 0.014175769 0.047225107 -0.014588479
0000d0 5d 3b 94 bc 79 5f 96 bd ea 92 a5 3d 83 bc 58 3d
       -0.018094713 -0.07342429 0.08084662 0.052914154
0000e0 ca de 5e 3d 05 ab c5 3c 7f a8 34 3d 2c cc 63 3c
       0.054411687 0.0241294 0.044106003 0.013903659
0000f0 e0 42 9c 3d 5d 90 26 3d 12 9a a4 3d 58 59 82 3d
       0.07629943 0.04066502 0.08037199 0.06364697
000100 f8 be 6e 3b df 9d 34 bc 18 5b 75 3b 76 42 fe bb
       0.0036429744 -0.0110239675 0.003743833 -0.0077593876
000110 30 34 81 3c df c2 9c bd 8e 6b dc 3c 2b 6e a0 bd
       0.015771955 -0.07654356 0.026906755 -0.07833513
000120 db ed 44 bd b5 08 85 bd 91 e6 4e bd 4d 0a 86 3b
       -0.0480784 -0.06495801 -0.050512854 0.0040905834
000130 cf 8f 9b bc c0 33 fc bc 1a 67 86 bc 74 14 25 bc
       -0.018989472 -0.030786395 -0.016406585 -0.010075677
000140 92 aa 80 3d 57 da 9b 3c 56 0f ec 3c c6 0e f8 ba
       0.06282534 0.019025011 0.028815906 -0.0018925301
000150 e6 54 1e bd d1 cf 6b bc a4 82 56 bd f2 dc 83 bc
       -0.038655184 -0.014392809 -0.052370682 -0.016096566
000160 90 ad df bc ed 16 b4 bc 49 00 8b 3d 3a 36 9c 3d
       -0.02730444 -0.021983588 0.06787164 0.076275304
000170 ec 35 c7 3c 72 85 25 3d c3 3b 0e 3d ac 65 b4 3d
       0.024317704 0.040410466 0.034724962 0.08808455
000180 6e 75 96 3d da 3d f2 39 5d a6 bf 3c a3 5e 1a 3d
       0.07346617 0.0004620392 0.023394758 0.03768791
000190 be c2 74 bd 35 73 18 3e a9 8c 03 3d 53 16 dd bd
       -0.059756033 0.14887698 0.032116566 -0.10795274
0001a0 b7 9f ec ba 40 75 7b 3d 3b 0c 21 bd 68 63 a3 bd
       -0.001805297 0.061391115 -0.039318305 -0.079779446
0001b0 6d 1d 22 3d 84 2d cb bc 50 4f 91 3d 83 42 e3 bb
       0.039578844 -0.024801977 0.07095206 -0.006935419
0001c0 cc 3f c7 3c fa dc 06 3d 65 cb 27 39 0c 36 eb 3c
       0.024322413 0.032925583 0.00016002131 0.028712295
0001d0 fc 28 e4 3b fe 53 90 3b 2d 12 ba 3b 6d 0e b3 bc
       0.0069628935 0.004404544 0.0056784363 -0.021857465
0001e0 98 55 1c 3d 48 df 5f 3b 56 7c 1d bd a6 b2 85 bd
       0.038167566 0.0034160186 -0.038448654 -0.06528215
0001f0 e9 4c 60 bd 76 2f 2a bd e3 11 27 bd 2d 66 f9 bc
       -0.054760847 -0.04154917 -0.040788542 -0.030444229
000200 92 1d 90 bc 10 e6 0d bb 4c a1 75 bc 83 9d 3e bd
       -0.017592225 -0.002165202 -0.014992069 -0.046536934
000210 71 4f a9 bd 4e 85 51 bd 4d cf 6d bc 04 78 94 3d
       -0.08267105 -0.05115252 -0.014514756 0.07249454
000220 ea da 3f bd a3 4b e0 3c e7 59 ec 3c 28 1c 07 bb
       -0.046839632 0.027379816 0.028851463 -0.0020616148
000230 da a6 01 3d 69 f3 e8 3c c8 6e 2f bd d1 da 8e ba
       0.031653263 0.02843638 -0.04283026 -0.0010898953
000240 94 32 e7 3c 69 14 51 3d 9c 9d 0c bb 9b a0 89 3b
       0.02822236 0.051044855 -0.0021456247 0.004200054
000250 7b 85 a1 3c b6 5f fe 3c be 87 f1 3c 37 dc ef bb
       0.019716969 0.031051498 0.029483672 -0.007319953
000260 5a c9 58 3c 06 11 ea b9 81 6b d6 bc d3 e7 6d 3d
       0.0132316 -0.00044644641 -0.026174309 0.058082413
000270 03 a0 fb 3c 86 ff 76 bc 85 ec 6f bd 49 f1 06 bd
       0.030715948 -0.01507557 -0.058575172 -0.03294495
000280 f0 48 85 bd f4 37 9e bd 11 d1 65 bc 9a b3 ed bc
       -0.06508052 -0.07725516 -0.014026896 -0.029016305
000290 d8 ef 23 3d bf 94 c8 3a 50 3a 86 bd aa 24 70 3a
       0.040023655 0.0015303119 -0.06554091 0.0009160737
0002a0 25 7b 26 3d b6 24 e2 bd ff f6 28 bd 3b 8b 0c 3d
       0.040644784 -0.11042158 -0.04125118 0.034312468
0002b0 4e b8 1a 3d 15 5a db 3c df 52 07 3c c5 06 95 bd
       0.037773423 0.026776353 0.008259504 -0.07276682
0002c0 2a 9d 82 3c bf c4 af bd ec 04 28 bd 86 50 b9 3a
       0.015944082 -0.08582448 -0.04102032 0.0014138378
0002d0 9e 98 31 3d ac 11 73 3d 0b 13 9d 3d db 6f 4e 3c
       0.043358438 0.059343025 0.07669648 0.012599911
0002e0 9c a0 1c bd 1d 69 26 bd 0e ad 4e bd 1a 2d 32 bc
       -0.038239107 -0.040627588 -0.050458007 -0.010875011
0002f0 8c 40 8a bd af 9e b8 3c 57 66 5d 3d ff d0 2e 3d
       -0.067505926 0.022536604 0.054052677 0.042679783
000300 ca dc db 3c 14 e2 02 3c 2d 37 4d bc c8 6d 4b 3d
       0.026838679 0.007988472 -0.012525362 0.049665242
000310 78 b9 65 3b 7b 03 f2 bc 6f cc 14 bd 90 92 c4 b8
       0.0035053175 -0.029542675 -0.036327776 -9.373308e-05
000320 5c 6e 5d 3b 55 46 1b bc 7a 17 9d 3d e6 4c 04 3d
       0.0033787703 -0.009477218 0.076704934 0.0322999
000330 d4 69 a8 3b a0 33 b7 bc 2c 32 be 3c 63 43 54 3d
       0.005139569 -0.022363484 0.023217283 0.051822077
000340 fc 87 ec 3c f7 97 19 3d e0 70 82 3d 9d 20 cd bc
       0.028873436 0.03749844 0.063691854 -0.025039965
000350 51 83 88 bc ef a1 c4 bd ee 66 84 ba 90 43 95 bd
       -0.016664179 -0.09601199 -0.0010101476 -0.07288277
000360 e1 b4 6c 3b a4 2f bd 3b 9c 7f 0b 3d 9a 6e 0d 3d
       0.0036118554 0.0057735015 0.034057245 0.034529306
000370 42 c7 d7 bd 82 01 5f bd af c1 bb bd ad a9 8f bb
       -0.10536052 -0.054444797 -0.091678016 -0.0043842406
000380 45 da 50 bd e8 86 7f bd 46 2e 77 bd e8 a5 59 bd
       -0.050989408 -0.062384516 -0.060346864 -0.053136736
000390 ab 66 99 3c bc 8c 03 3d 62 59 af bd 6c ef 1f bd
       0.018725714 0.032116637 -0.0856197 -0.03904669
0003a0 e0 03 9b bd 7c ac 12 3c f7 9b 6c 3c 03 f0 f2 3c
       -0.075690985 0.008952256 0.014441482 0.029655462
0003b0 4a 8c a5 3c 8e 2c a6 3c 8d 86 d1 3b 72 6d f4 bb
       0.020208497 0.020284917 0.0063942135 -0.007459336
0003c0 77 e9 9b bb 62 75 91 3c 5b 82 9b 3d b7 78 74 bd
       -0.004758056 0.017756168 0.07593223 -0.059685435
0003d0 71 36 3e bd 6b 5f c6 bd 4b a1 9e 3d a3 92 ad 3d
       -0.046438638 -0.09686168 0.07745608 0.08475234
0003e0 cd 74 f5 3c b7 d7 d3 b9 af b6 b4 3b 5d 45 98 bc
       0.029962922 -0.00040405776 0.0055149416 -0.018587762
0003f0 63 b5 ff 3b 09 de 83 3c d9 8f af bb ca 01 a6 3b
       0.0078036054 0.016097086 -0.005357724 0.0050661312

conv3.bias f4 [128]
000000 ad 43 51 bd 88 1f a1 3c 64 64 fc 3c 5a 5c fe bc
       -0.05108993 0.019668356 0.030809589 -0.031049896
000010 a2 86 04 bd 36 0f c7 bc c4 b4 86 3c c0 07 61 3d
       -0.03235496 -0.024299245 0.016443618 0.05493903
000020 ca 90 fc bc 45 e7 4b bd df 04 ab 3c f3 cc 0c bc
       -0.03083076 -0.049781103 0.020876346 -0.008593786
000030 16 4e e1 3c 11 48 90 bc 1d b1 25 bc 8a c0 93 bb
       0.027503055 -0.017612489 -0.010113028 -0.0045090364
000040 98 ab ab 3c 65 1d dd bc 5e 82 15 bd f7 6f 8b bc
       0.020955846 -0.026991555 -0.03650128 -0.017021162
000050 cd 1b 12 bd 60 b2 0d bc b2 27 9a bc 38 a6 05 bd
       -0.035671044 -0.008648485 -0.018817756 -0.03262922
000060 54 2e 4a bb a3 52 1e bd 97 62 d5 3c ba 3c ed bc
       -0.0030850368 -0.038653027 0.026047988 -0.02895962
000070 c5 71 29 bd 8b c4 db bc a8 e6 1e 3c 6b 84 a6 bc
       -0.041368265 -0.026827117 0.009698547 -0.020326814
000080 83 6b c7 bc 43 b1 08 3d d0 5d 0f 3d ad b2 a8 3b
       -0.024343258 0.033372175 0.035001576 0.005148253
000090 a3 6f b6 3c 6a e9 57 bd 36 d9 af bc 03 46 99 3c
       0.02227003 -0.052712835 -0.021465879 0.018710142
0000a0 cd 4e 27 bc a5 3f 98 bd 0b 26 44 3b 2f e6 3b bd
       -0.010211659 -0.07434014 0.0029929902 -0.045873817
0000b0 fc fb f7 3c 72 68 ce bb 62 2b 47 bd 21 a6 34 bd
       0.030271523 -0.006299072 -0.048625357 -0.044103745
0000c0 a4 bf 5f bd 03 f7 99 bc 1b a8 b4 bb 15 c1 fc bc
       -0.054626122 -0.018794542 -0.005513204 -0.030853787
0000d0 46 ca 3a bc 88 64 16 bc 10 81 3e bd ee 1a ec bc
       -0.011400765 -0.009179242 -0.046509802 -0.028821435
0000e0 01 95 c4 3c 99 5e 17 3c e3 20 d9 bc 9c 5b 24 bd
       0.023996832 0.009238862 -0.02650494 -0.040126428
0000f0 37 8e 0d bd 5e 92 c0 bb eb fc ad bb c3 09 be 3c
       -0.034559455 -0.0058768233 -0.005309691 0.023198014
000100 8c 25 30 3d 64 5c 45 bc 91 b0 91 bc f9 15 bd 3c
       0.043004557 -0.012045953 -0.017784389 0.023081766
000110 b4 03 9b bc e5 1e a7 ba b7 60 0f 3d 54 6b 37 3c
       -0.018922664 -0.0012750296 0.035004344 0.011195023
000120 69 29 f6 bc 89 5c 28 bd 9a 78 55 bd d7 53 fe bc
       -0.030049043 -0.041103873 -0.052116968 -0.031045837
000130 1e 34 99 3c c9 3d ae bc 98 a5 3c bd 91 1e dc 3c
       0.01870161 -0.021269696 -0.04605636 0.026870044
000140 ee db e8 bc a0 fd 8d bd 0f eb d8 bc dd 54 26 3c
       -0.028425183 -0.06933141 -0.026479272 0.010152069
000150 2c 80 fc 3c 64 d6 44 bc 3b 55 a4 b9 79 9e 42 3b
       0.030822836 -0.012014005 -0.0003134402 0.0029696508
000160 b1 47 7e bb 1a e6 be bc 36 78 eb bc b1 45 f5 bc
       -0.0038800056 -0.02330308 -0.028743844 -0.029940458
000170 6a ea 1a 3c c6 f1 e9 bc 2c c9 e2 3c 15 5a b4 bc
       0.009455303 -0.02855767 0.027683817 -0.02201561
000180 6f b1 a1 bd 61 0d db 3c ec 17 6f bc 94 fc 0b bd
       -0.07895171 0.026739778 -0.014593106 -0.034176424
000190 3b 3d 03 3d 5e ff de bb 80 1c aa 3c 2d 1d d0 bc
       0.032040816 -0.0068053445 0.020765543 -0.025404537
0001a0 0e c4 d3 bb 6a 78 ad 3b b1 5e e0 3c 5b 96 11 3d
       -0.0064625805 0.0052938955 0.027388902 0.03554378
0001b0 6b 51 83 bd ae 35 53 bd 36 7b 05 3d 32 7b 4a 3c
       -0.064120136 -0.051564865 0.032588206 0.012358474
0001c0 9d 02 0a bd 0c 13 28 3c b9 dd c8 ba db 99 0c bc
       -0.0336939 0.010258447 -0.0015324868 -0.008581604
0001d0 d1 c1 23 bc 22 0c 84 bd 0d a4 bd bc f1 72 d4 bc
       -0.00999494 -0.06447627 -0.023149515 -0.025933715
0001e0 42 cd 92 3b 2b 34 95 bc 6c 1e 98 3c ea bf 88 b8
       0.004480035 -0.018213352 0.018569194 -6.520732e-05
0001f0 c0 17 bc 3b 82 d5 04 3d 21 b1 de 3c 68 07 80 bc
       0.005740136 0.03243018 0.027184071 -0.015628532

fc1.weight f4 [10, 128]
000000 11 d6 5f 3d b8 7b 82 bd 76 65 78 3d 8f e7 99 bd
       0.05464751 -0.06371254 0.060643636 -0.075148694
000010 fd c1 03 3d cb 0f a5 3d 33 01 4f 3d e8 50 b3 bd
       0.032167424 0.08059653 0.050538253 -0.08755666
000020 b2 7b 7b bd c4 d2 87 bd fe e3 18 3d 32 8f bd 3c
       -0.061397262 -0.06631997 0.037326805 0.02313957
000030 b8 77 ce 3d 07 80 15 bd 28 36 db 3d f6 27 10 be
       0.10081428 -0.03649905 0.10703689 -0.14077744
000040 69 0e 81 bd a2 31 9d 3d 45 ca 1d 3c b7 c6 bd 3c
       -0.06301577 0.07675482 0.009630744 0.023166044
000050 49 d3 f1 bd dc 27 c2 3c dc 4c a2 3d 30 2d 8d 3d
       -0.118078776 0.023700647 0.07924816 0.068933845
000060 78 22 40 be 55 c2 b2 3d 33 04 7a bd 93 bb db bd
       -0.18763149 0.08728472 -0.06103916 -0.10729136
000070 c5 18 92 bd 09 99 8b 3d 0d 62 0a be a9 5c 0f 3e
       -0.07133631 0.068162985 -0.13513966 0.14000191
000080 1b 3d c6 bc 5a 7b e3 3c e7 78 88 bc 46 84 d4 bd
       -0.02419906 0.02776878 -0.016659213 -0.10376792
000090 95 cd f2 3c 3d 6a 02 bd c0 c7 ed 3a b8 68 07 be
       0.029639045 -0.031839598 0.0018141195 -0.13223541
0000a0 35 d2 f3 3c 78 d0 93 bd e3 ba 38 be 2f 8a ba bd
       0.02976332 -0.07217497 -0.18040042 -0.09108388
0000b0 a9 e6 10 bd 55 83 9b bc 8b 5f b6 3d b2 6a 08 3c
       -0.035376225 -0.018983522 0.08904942 0.008326219
0000c0 8d d9 3b 3d 30 33 97 3d 31 15 1d 3d 69 4f b7 bd
       0.04586177 0.0738281 0.038350288 -0.08950693
0000d0 76 a9 ab bd 2b da 1e 3d fe 4b 0d be 29 61 d9 3d
       -0.083819315 0.03878228 -0.1379852 0.10614235
0000e0 b7 26 44 be f3 94 64 be 48 2f 02 be 24 50 26 bd
       -0.19155394 -0.22322445 -0.12713349 -0.04060377
0000f0 54 94 e1 3d 99 3b fe bd a7 b7 d5 3d 84 de 9b 3d
       0.110146195 -0.12413711 0.104354195 0.07610801
000100 ce cc 1f bd d4 ac e9 bd c1 61 24 3d c5 4e 97 3c
       -0.039013676 -0.114099175 0.040132288 0.018470177
000110 fc 81 1c bd ba 31 0a bd e9 0f dc bd 79 31 ba bd
       -0.0382099 -0.03373883 -0.10745222 -0.090914674
000120 b8 6a 47 3b e1 be b8 3b 53 c9 50 3d 3b 7c 81 3c
       0.00304286 0.005637989 0.050973248 0.015806308
000130 a7 f2 cc 3c 14 39 80 3c e2 b3 6f bb 85 f2 6f 3d
       0.02501805 0.015652217 -0.0036575724 0.058580894
000140 e3 a4 93 3d 29 73 be 3d bf 7b e6 3d ef d8 04 bd
       0.07209184 0.09299309 0.112540714 -0.032433446
000150 dd ac 89 3d 05 be e8 3c 7f 91 e6 bd 54 d0 d6 3c
       0.06722424 0.02841092 -0.1125822 0.026222385
000160 69 f8 bb 3c 04 55 18 3d 9d b8 2b 3c e1 24 8b 3d
       0.0229456 0.037190452 0.010481027 0.067941435
000170 98 c6 95 bd 7c 3b 33 bd 48 ad bd 3d ca 0d 22 3e
       -0.073132694 -0.0437579 0.092615664 0.15825573
000180 4a 01 e6 bd 5d 79 72 bd 17 79 3d bd c3 8b db bd
       -0.112307146 -0.059197772 -0.04625806 -0.10720017
000190 23 7a 92 bd bb 7e 00 be f3 aa 24 be 01 18 db bd
       -0.07152202 -0.12548344 -0.16080837 -0.10697938
0001a0 5b 5a 4f bc a9 bc 9c 3d 85 0a 34 bd 29 c0 02 be
       -0.01265582 0.076531716 -0.043955345 -0.12768616
0001b0 a4 f7 99 3d 12 51 ea 3c ce 9c e6 bd d3 e4 8a bd
       0.07517937 0.02860311 -0.11260377 -0.06781926
0001c0 9a 65 a3 bd 8f 42 0f be b9 0e f9 bc 18 97 10 be
       -0.07978363 -0.13990234 -0.030402528 -0.14120138
0001d0 76 8b a3 3b fb 73 d2 3d 2d f1 6a 3d 4b 56 11 bc
       0.0049909903 0.10276028 0.05735891 -0.0088706715
0001e0 0c 46 ff bd f7 ed 6a bd 0a 14 8c 3d 48 bb d3 3d
       -0.12464532 -0.057355847 0.0683976 0.103384554
0001f0 7d f2 ac 3c 83 7f fa bd c6 a8 09 be 7d 04 a5 bd
       0.021111721 -0.12231352 -0.13443288 -0.08057497
000200 f6 40 1b be 98 be 8c 3c a9 b8 38 be db 60 83 bd
       -0.151615 0.017180726 -0.18039192 -0.06414958
000210 d6 af ad bd e8 15 8e 3d 0c 25 b9 3d 5d 4a 51 3d
       -0.08480804 0.06937772 0.09040269 0.05109631
000220 05 b9 10 3b 1a 70 4d 3d 32 1e 91 bc 39 f4 80 3d
       0.0022082936 0.050155737 -0.017714594 0.06296582
000230 03 cb cc 3d 1c 32 1d 3d f8 74 f3 bc 5e 4f e6 3d
       0.09999659 0.038377866 -0.029718861 0.11245607
000240 b0 22 74 bd 7b ff 3c bd c3 9a 1c 3d 12 e3 24 3d
       -0.059603393 -0.046142083 0.03823353 0.040255614
000250 71 ee ab bd 8c 50 10 3d fb cc 8a 3d 84 25 30 be
       -0.083950885 0.035233065 0.06777378 -0.17201811
000260 95 b1 0e be 8f 90 bc 3d c2 a0 80 bc 6f 37 43 3c
       -0.1393493 0.0920726 -0.015701655 0.011915072
000270 24 b7 99 3d ac 0e 43 bd 05 a4 51 3b 8c df 22 be
       0.075056344 -0.047621414 0.0031988632 -0.15905589
000280 c2 81 7f bd f7 b4 03 3d 33 ff c4 3d eb 6a aa 3c
       -0.062379606 0.032155003 0.09618988 0.020802936
000290 65 d7 75 3c 87 a0 c7 3d c3 2a 15 3c cf 63 0d be
       0.015004967 0.09747415 0.0091044335 -0.13807605
0002a0 ac 4b b9 3d 01 03 0d 3d 43 75 d3 bd b6 a8 5d 3d
       0.090476364 0.034426693 -0.103251 0.054115973
0002b0 99 13 c4 bc 76 6d 14 be 60 7d 2c be ee 23 a8 bd
       -0.023935126 -0.14494881 -0.16844702 -0.08209978
0002c0 9f be e0 3c ef db 76 be c1 30 0b be 33 c4 46 be
       0.027434645 -0.24107336 -0.13592817 -0.19410782
0002d0 da 54 7f 3c 69 fa 6d bd 97 d1 43 3d 5b f1 0b bc
       0.015584195 -0.058100138 0.047807302 -0.00854143
0002e0 c2 ea f7 3d 16 fb 5b 3d ce 2c b8 bd 19 84 a6 bc
       0.121053234 0.05370625 -0.08992921 -0.020326661
0002f0 7f b1 d5 3d 5d bd d1 bd 54 40 8b 3d 26 5a d0 3d
       0.10434245 -0.10241196 0.06799379 0.101734444
000300 ce 17 67 be 6d ed f3 3d 67 8a 77 bd 80 e2 67 3d
       -0.22567675 0.1191052 -0.060434725 0.05661249
000310 0a cd f9 3d 09 fb af 3c d8 d9 d7 3d ce 5a 42 bd
       0.12197311 0.021482008 0.10539597 -0.04744988
000320 26 a7 fa bd 2a c6 fc bd 13 16 87 bb 31 3d 69 bc
       -0.12238912 -0.12342484 -0.0041225045 -0.014235781
000330 f0 b6 cd 3b 91 07 b8 3c 9b c0 3d bd 17 28 1e be
       0.0062779114 0.022464545 -0.04632626 -0.1544498
000340 03 6d d8 bc 0a 55 0a be af 66 16 be 9c 27 1a bd
       -0.026419168 -0.13509002 -0.14687608 -0.03763543
000350 5f 16 e9 3d e1 87 10 bd 42 1c a0 3d e1 80 c0 bd
       0.1138122 -0.035285834 0.0781789 -0.09399582
000360 07 94 f8 3c 14 c1 b0 bc cc 60 c0 3d 42 dc 2a ba
       0.030344022 -0.021576442 0.093934625 -0.00065178063
000370 2b 0f 54 bd e0 ae 32 3c 80 cd 00 3e d0 2c 00 be
       -0.051772278 0.010905951 0.12578392 -0.12517095
000380 65 e6 20 be b7 5d bf bd 49 fa 87 3d 24 62 65 bd
       -0.15712889 -0.093440466 0.06639535 -0.056001797
000390 4f b4 11 3e ee 56 30 be a4 ce 76 3d c7 55 46 3d
       0.14228939 -0.17220661 0.06025566 0.048421647
0003a0 70 84 63 3d 88 f2 6c be fb fe b4 3d 99 a4 f0 bd
       0.055546224 -0.23139393 0.08837696 -0.117501445
0003b0 be 3a 73 bd 40 41 ba bd 9a 08 0c be b1 36 04 be
       -0.059382193 -0.09094477 -0.13675156 -0.12911488
0003c0 87 7d e2 bc 56 b8 b4 3d e4 ff a7 bc 02 13 9f bd
       -0.027647747 0.08824222 -0.02050776 -0.07767297
0003d0 9f ed f1 3d 66 a3 35 be e8 71 f2 3b 69 24 6f 3d
       0.11812901 -0.17738113 0.0073988326 0.058384333
0003e0 1b b2 b8 bc e3 1b b3 bd 76 00 a9 3d b7 8c 03 be
       -0.022545865 -0.08745553 0.08252041 -0.12846647
0003f0 3c d1 c4 bd 84 68 75 be d2 41 4a be 93 1e 9c bd
       -0.09610221 -0.23965651 -0.19751671 -0.07623019

fc1.bias f4 [10]
000000 e8 49 91 bd f7 06 69 bc 1b 20 86 bd d5 8e 13 3c
       -0.070941746 -0.014222852 -0.065490924 0.009006222
000010 4b 76 a6 3d 5e 50 5c 3d 1e c9 dd bc a6 53 e0 3d
       0.08128031 0.05378758 -0.02707344 0.10953455
000020 ca ed 4f bd ef 72 2d bd
       -0.050763883 -0.042345937
